Classifier/weights/weights.npz (npz, 136080 bytes, 8 tensors)

input_hidden f8 [20, 784]
0	0xbfdf35568dee718a	-0.4876304994629882
1	0x3fd0195b8b541e44	0.25154770475680643
2	0x3fda225f1a3e1c42	0.40834786951785784
3	0x3fc5e8a2d4044240	0.17116198875784683
4	0x3fd6aa222b23caae	0.35413412297126967
5	0x3fb525d0e570a920	0.08260827638210744
6	0x3fa77df5a859f9e0	0.045882870484081684
7	0x3fbf1cf1a767e078	0.12153539979033379
8	0x3fdc00242abce476	0.43750862287158243
9	0x3fd286f9b21fbbb2	0.2894882430545592
10	0x3f6d2f534eb6a600	0.0035626055811988078
11	0xbfdc184ffca2ca54	-0.43898391410326565
12	0xbfd73e77f1f94110	-0.3631877768539349
13	0x3fced9df4588b2e3	0.24102393050397727
14	0xbfd059bd62f67fa6	-0.2554772821840693
15	0xbfcabb6bad57a4f9	-0.20884462322218392
16	0xbfd009066dc741da	-0.25055084915677883
17	0x3fdb105fff239ad4	0.4228744498818007
18	0xbfbd28cbea6c7f98	-0.11390375588643875
19	0xbfc1cc507ca22c10	-0.13904768071765305
20	0x3fda8b74ef048052	0.41476176587639657
21	0xbfd775eff839b7c2	-0.3665733264996299
22	0xbfd1cdfbff64d0c4	-0.27819728794862564
23	0x3fc7bcb1ec3edf94	0.18544601474218025
24	0xbfa94d0ee06af8c0	-0.049416031737096855
25	0xbfd4ec37bd387fa0	-0.32691758612235766
26	0x3fa29a271d483fc0	0.036332342457285005
27	0x3fddc58e144ea2b6	0.4651828001320085
28	0xbfad4f062e631c90	-0.057243531382078605
29	0x3fb8be5368d47710	0.09665414151501417
30	0x3fce0320cd0fbdb0	0.23447046292083717
31	0xbfde80ce7205bc38	-0.47661172041893307
32	0xbfbff2a6008d3561	-0.12479627145258611
33	0x3fda4175695ce6c1	0.4102452782568485
34	0x3fac947935f5dd07	0.05582026275345169
35	0xbfcb58c64f497489	-0.213646687235187
36	0xbfbf22c34efe17ba	-0.12162419012574235
37	0xbfd13320df7d38dc	-0.26874563050377076
38	0x3fb5c43fb7035822	0.08502577035992023
39	0xbfd478662dc612f2	-0.31984858007517325
40	0x3ff2b9e9cabddc05	1.1703889770121816
41	0x3fe15241d7d1ee55	0.5412911620364392
42	0x3fe4b6ec32f6a05c	0.6473294253710367
43	0x3feefa766d975417	0.9680740490390488
44	0xbfac30f013fa1b39	-0.055060865820499356
45	0x3fad98ee06549152	0.05780738665842712
46	0x3fdd82980b26794e	0.4610958203210388
47	0xbfd789bb21459b84	-0.3677814316674175
48	0xbfc5be66fb52c23d	-0.16987311622280457
49	0x3fc7af6215e402e8	0.18503976887588824
50	0xbfc7f0f6df91c9ab	-0.18704114834288296
51	0xbfbf4adf603165e4	-0.12223621462307893
52	0x3fd669d3911a2b86	0.3502091328634197
53	0xbfc29e46f805710c	-0.145455237487916
54	0xbf9d087838ba4980	-0.028352621519454058
55	0x3fcec24c18ee0478	0.24030448167107799
56	0xbf74fb6707cd2b80	-0.005122568571844677
57	0xbfc99114e1e02b54	-0.19974003819546715
58	0xbfbd374e574128e2	-0.11412515287625838
59	0x3faafe99659d279f	0.05272368779567604
60	0xbfd1eee9b179e443	-0.2802070840039656
61	0xbfdb710c262ff9c8	-0.42877486924399166
62	0x3fc8179a3c9ce484	0.1882202907525291
63	0x3fd13039694457e5	0.26856837539651074
64	0x3fe13ed1e9fbaaa9	0.5389184541685
65	0xbfd2fcab7ae2819a	-0.29667174339740543
66	0x3fc83f163acbd32e	0.18942525740535515
67	0xbfc3b694510c152f	-0.15400937993414618
68	0x3fe05ca62bedc8eb	0.5113097055421155
69	0x3fe59fcc761572cf	0.6757566744159592
70	0x3fec70ef881dd940	0.8887860926177282
71	0xbfbf4d166bfa874f	-0.12227001320073082
72	0xbfedf47137a59029	-0.9360891424989904
73	0xbfe435c9ead015bf	-0.631566008204281
74	0x3ffdf3608664d816	1.8719182252657496
75	0x3ff279531965f36c	1.1546202652090995
76	0x3ff2d09678b7a63f	1.1759247508547472
77	0x3feb7bb823516f2c	0.8588524522597019
78	0x3fe259f61759c194	0.5734816032473184
79	0xbfa0c9088779b057	-0.03278376249076647
80	0xbfc055105dfb9d79	-0.12759594525344278
81	0xbfe095a7acbc4047	-0.5182684301125925
82	0x3fd0bcb8eb24638e	0.2615186973867417
83	0x3fd728c76a1cc676	0.3618639503721178
84	0xbfd8168d3cdba9d6	-0.37637644713563867
85	0x3fd917edc3272060	0.39208549554724037
86	0xbfd55543bb6508db	-0.33332913685093296
87	0x3fd41c6a3fbc3f08	0.3142343161025427
88	0xbfa0f29affce3bdb	-0.03310093281390155
89	0xbfb02cc2719197a4	-0.06318297646211463
90	0xbfd8fb180bb8dbbc	-0.39032555718170747
91	0xbfd97d296ef03477	-0.39826427301233686
92	0xbfd87c0319a15bdd	-0.3825690985008217
93	0x3fd0a3ea51e26838	0.26000459667705256
94	0x3ff99f5a8bf5819b	1.6014047114514145
95	0xbfe62b6e2dfbfc6f	-0.692801561177374
96	0xbffbbbbfe1758b02	-1.7333372885702265
97	0xbff384156a146bd8	-1.2197469848385847
98	0xbffedc941ec927bf	-1.9288521959847313
99	0xc00972d64076fa3a	-3.1810727154072795
100	0x3fc580dd24e1421d	0.16799511242653944
101	0xbfb91f0f0c05c827	-0.09813016932983541
102	0x3fdb4981b14739ec	0.4263614875061694
103	0x3ff71eeefbcbb78c	1.4450521312496418
104	0x3fe895c3d9255516	0.7682818642739757
105	0x3fc44e78c6d671d1	0.15864476879950343
106	0x3fe52c6abaaeabe2	0.6616719862116691
107	0x3ff7694a62d25ab6	1.4632057056639218
108	0x3fdfe0061115d338	0.49804832142335753
109	0xbfd9abbd394cb074	-0.4011071261945809
110	0x3fc70c707d779c01	0.18006712080315881
111	0x3fa05d565d0f1040	0.0319621075246066
112	0xbfc717892877de54	-0.18040575481403442
113	0x3fd4fe93d11aa707	0.3280381719620071
114	0x3fdd76e1a2ebe753	0.4603809443502673
115	0xbfd36b1d6833b55d	-0.30341277290320595
116	0x3fbe0de0a902ac00	0.11739925504905102
117	0xbfef033c96461ef4	-0.9691451010739613
118	0xbff5f01aade61b9c	-1.371119193355958
119	0xbfe2af5573f16564	-0.5839030518065269
120	0xbfe6bc229d1bbe84	-0.710465723850533
121	0xbfe7db74e7367dd3	-0.7455391422153589
122	0xbfda7a8f71090f01	-0.4137304881917175
123	0x3fd8a7c8e8430f56	0.38524077112037014
124	0xbffb8bf5f7516d99	-1.7216701184141583
125	0xbff250cc47ce126c	-1.1447260670548998
126	0x3fe7657b491dec2a	0.7311378887237698
127	0xbfd02e60f6be2863	-0.252830735168237
128	0xc0047fce9d372895	-2.5624058039148374
129	0x3ff1807a8738e141	1.0938668520085033
130	0xbfe2d4069c93bb8b	-0.5883820589204886
131	0xbff419a0e4070225	-1.2562569529837984
132	0xbff369fc9b74cee9	-1.2133756706725143
133	0xbfd46c3ba98de79d	-0.31910602148092854
134	0xbff38eaaefcfcf75	-1.2223309867522094
135	0x4000360298b6d255	2.0263721400063255
136	0xbf9ef8a4951528f1	-0.030245372390063478
137	0x3fd54bd35263273f	0.33275301976810917
138	0x3fe1cf4f8683d191	0.5565564753765547
139	0x3fc35c6c47727961	0.15125802506095012
140	0xbfc6a4de2ff52c88	-0.1769063696068296
141	0x3fd40b4df671d1ba	0.3131899744687662
142	0x3fdb31e8879eafc9	0.42492116207244784
143	0x3fdc70bc790d98df	0.4443808729323688
144	0xbfe10d2006ab5079	-0.5328521852739093
145	0xbfeeb183d70358a6	-0.9591693114732791
146	0xbfff1e321a84cceb	-1.9448720012558691
147	0xbfee7519c7f054b7	-0.9517945199064773
148	0xbff0e3f308425028	-1.0556516955011919
149	0xbfde2976ecd3ae5a	-0.4712807953608028
150	0xbffc16f46f7bc59c	-1.7556042055915446
151	0x3fee342789aff46a	0.9438665093617946
152	0x3fced8c041570d1c	0.24098971548492265
153	0xbfec12717cc75653	-0.8772513806422445
154	0xbfe52544756d07af	-0.660799245212038
155	0x4000526955510a8d	2.040239969764406
156	0xbff74fbc8e966f77	-1.45696693132683
157	0x3ff3bde46e080ca7	1.233860425768208
158	0xbfef252d96c79ca5	-0.9732883400837592
159	0xbff25c6b30330fba	-1.1475631602088314
160	0xbff975b6a69172dd	-1.5912386423653324
161	0x3fef025a42824857	0.9690371798517486
162	0xbfdfbe9e8dd7550f	-0.49600948192285527
163	0xbff320f9a352314d	-1.1955505733231633
164	0x3ff0d7deaa4135c9	1.0527025843215247
165	0x3feb300fe71c1a5c	0.8496169580328785
166	0x3fe27b3814832c47	0.5775413895256712
167	0xbfb3af3bf664d065	-0.07689261212800742
168	0xbfdd79add6cb9c04	-0.46055170036419235
169	0xbfd1e3218aef8d44	-0.2794879776758601
170	0xbfc3c01ec673bf95	-0.15430054369016646
171	0xbfd231795a037efd	-0.28426965513607155
172	0xbfdb3b86348a6518	-0.4255080712406012
173	0x3fc7dfe8a9764ed4	0.1865206553890092
174	0x3ffeeb327b3069dd	1.9324211895060366
175	0x400399fd094976a1	2.450189659647393
176	0x3fe4fe158da5c083	0.6560161367942928
177	0xbfd4d581ea03862c	-0.3255314622202572
178	0xbfe6361b0a4bdaa2	-0.6941046906566337
179	0xc000f663707c8e5c	-2.1203068531047347
180	0x3ff69f0f0c4a4c5e	1.4138327102744124
181	0xbfaaa051483e9e33	-0.05200437552349193
182	0xbfd4c1261dc9378a	-0.3242888728026335
183	0xbfe11a6991e13ad1	-0.5344741677489201
184	0x3ff0c90369797a8c	1.0490755195711783
185	0x3fe95127fa73ff1c	0.791156758466943
186	0xbfe9f75f7d8e21fc	-0.8114469005823248
187	0x3fdcdb13e01835ef	0.4508714378760876
188	0x3fd8e4e4caa13df9	0.3889705637747905
189	0x3fdefb5e0c0dec52	0.4840922467917085
190	0xbfdaab5f4d4cdc35	-0.4167097334752186
191	0xbfdb36042c533121	-0.4251718933926601
192	0x3fe81a37bc048012	0.753200404378733
193	0x4003eee4d10c7ceb	2.4916473705230735
194	0xbfa666baaccd1718	-0.043752511590851195
195	0x3fd309cecba1930d	0.2974736202798319
196	0x3fb92a3bebb4b139	0.09830069069420667
197	0x3fd826c08a9b0309	0.37736524139113264
198	0xbfc55e0f9181b519	-0.16693300823991633
199	0x3fd636ca3e8e1b86	0.34709411724946226
200	0xbfd4ede1e4601fb1	-0.3270191889027912
201	0x4005e94b828ea010	2.7389135551238795
202	0x3fe4edeae682bdf5	0.6540426733171772
203	0xbffdf8294533f904	-1.8730862334483058
204	0xbfc8b6cb9039a4ff	-0.19307846586460894
205	0xbfcf11b3f225d3ea	-0.24272775004979447
206	0xbfcb34ef6a38b07e	-0.21255295454591655
207	0x3ff0857cddcb0425	1.0325897849836647
208	0xbff89bdaf8c725eb	-1.538050624645957
209	0xbff40dfda116c4ea	-1.2534157078301242
210	0xbfde82e302c747ec	-0.47673869391758106
211	0x3feb1bd5e3e4ae62	0.8471478892365207
212	0x3fb8871fe883cfdc	0.09581183840401714
213	0xbffaa2a6633f698e	-1.6647094609130337
214	0x3fd1dff56494bf7e	0.2792943460690295
215	0xc0005a7933bf0f40	-2.044176487224746
216	0x3fb0459de301a709	0.06356226722860127
217	0x3fe9a5944f668b01	0.8014623213569793
218	0x3fca463c94fb0fe8	0.20526845240067293
219	0x3febdb8808e7c485	0.8705482648785084
220	0x3faa341353c3a26f	0.05117855451118635
221	0x3ff83989d56d7504	1.5140474640859916
222	0xbfd1144fbd7731ca	-0.26686471464634265
223	0xbfd4eee66e0102e5	-0.3270813059098557
224	0xbfd2eaa73af3c173	-0.2955720973686972
225	0x3fda4f09d5495fc9	0.41107412174960395
226	0x3fc1c6ded317eb34	0.13888154322906987
227	0x3fe30d63c0b5549f	0.5953844798883842
228	0xbfe98f7922f49409	-0.7987638170931187
229	0xbffab02e5a3b2f75	-1.6680129551559422
230	0x3fc5bddf84a3bcf2	0.16985696770232256
231	0xbff9110a8dccbe91	-1.5666604556135193
232	0xbff27b703e4b2576	-1.155136340459959
233	0xbfe024edfe3037ac	-0.5045080151191903
234	0x3fc065ec9940c17a	0.128110480146926
235	0xc007341e3fc902af	-2.900448320695737
236	0x3fe26b7caf0c6e6a	0.575620977298468
237	0x3ff32a15131d6dae	1.1977740046194003
238	0xbff5532a99f5a0f9	-1.3328042997400742
239	0x3fd5b8be78d358dc	0.33940088080761455
240	0xbfe837d547f34624	-0.7568155675200541
241	0xbff60a759b662687	-1.3775535650515012
242	0xbfeacd7430d4342e	-0.8375798181238048
243	0x3fea3198e81ef982	0.8185543569195917
244	0xbff0609a6d57a827	-1.023584773176944
245	0x3fe704751428a783	0.719294108746212
246	0x3fd2d62a457ebcc7	0.29432160174014793
247	0x3feb7388a9eca64d	0.8578532522998984
248	0x3fe7f175d745b0a8	0.7482251362357788
249	0x3ff732551fb716e4	1.4497882117151955
250	0xbfbe920a719f2472	-0.11941590570417462
251	0x3f9329dffa14dee0	0.018714427603497508
252	0x3fd241465817c129	0.28523405649959216
253	0xbfcc0ee7944dfc73	-0.2192048524993627
254	0xbfdc8d415bd0f159	-0.44612153974937524
255	0xbfb59c57551b54ef	-0.08441682651330827

hidden_hidden2 f8 [20, 20]
0	0xbff5c1a60c8d5ae5	-1.3597774973219938
1	0x3ff5b54eb851538d	1.356764526358549
2	0xc003fc4965931b38	-2.498186868240193
3	0x40137c9b31fbdec5	4.871685772893845
4	0xbfb817f4abae2b45	-0.09411553565420856
5	0xc00ea8fffd3778a8	-3.832519510512686
6	0x3fdc582ed95fee48	0.44288226345063153
7	0xbff841abadce38c5	-1.5160328664092486
8	0xc01492f64d0cd12a	-5.143517688662806
9	0x4002bb9c253eeaf8	2.341606417639351
10	0x400900ef399191f5	3.125456285242985
11	0xbfc1b2923638662c	-0.1382620587108233
12	0xbfb2871eac2fdeaa	-0.07237426475318878
13	0x401549df25cb8b27	5.322140303180993
14	0xbffc8d66c82689ba	-1.7845218485241348
15	0xc00100765b89fdd5	-2.1252257491575883
16	0xc010d687120091f7	-4.209499627384949
17	0x40124e8a457fe582	4.576699338847336
18	0x3ff01350f73e8a8e	1.0047158868771109
19	0xbfe9b4854d87fec3	-0.8032862200052125
20	0x40170f10988038ef	5.764711745096277
21	0x400686fb11db404e	2.8159085650477556
22	0xbff87053c29d04e2	-1.5274236299595079
23	0x40105f22cd7321bf	4.09290619864663
24	0xbfe6e46128f68ec1	-0.7153783607540946
25	0x4011439722f77fa2	4.3160062278329026
26	0x3fd6af12c74fb2fd	0.3544356295013101
27	0x3fefedb55bc186f7	0.9977671424969391
28	0x3ff42c40603b2a74	1.2608035811450948
29	0xc00b8a3e6566661f	-3.442501823604075
30	0xbffa39852150c779	-1.6390429784191538
31	0xbfe9a1c364762a88	-0.8009964906826363
32	0xbfff40a82de718cb	-1.9532853882861214
33	0x3ff7991edc39f7e6	1.4748829462619084
34	0xbfd5bc3a76310dda	-0.3396135477271095
35	0xc006c8e070cb45c5	-2.8480843364747863
36	0xbfb70a0d8de1406a	-0.08999714578499299
37	0xc01044e067534f77	-4.067262281856407
38	0xbfd82a308ef152df	-0.37757505378003303
39	0xc0049db192d3db40	-2.576998850908609
40	0x3ffa94f7b0f68d25	1.6613690292950392
41	0x3fd75eff3ee8e365	0.3651731600144131
42	0xc013b41b9584d5fd	-4.925886474831256
43	0x3ff38165968eb849	1.2190910226013492
44	0xbfeb303df3358e79	-0.8496389150790967
45	0xbfca7d869e4d2f0f	-0.20695574502530475
46	0x402341b98e3529fd	9.628368801107166
47	0xc0111c35b1f771b8	-4.277548580863758
48	0x3ffa8e346795f311	1.659717945701406
49	0x3fe476cfe5ce1f3d	0.6395034302122223
50	0x400da07da6dbf81c	3.7033646617774263
51	0x40176b477bbe5402	5.854764874927243
52	0x4011ce3e47a00b9a	4.451409453528777
53	0xbff948df7f148fb7	-1.580291267783634
54	0xbff00187899d0f41	-1.0003733993080035
55	0x4014448522ad3dcc	5.066914121459785
56	0x3fd5903fa284a2e5	0.33692923422726856
57	0xc00883c1323c8fb9	-3.064333336327732
58	0xbfe0caaad8ec05ff	-0.5247396694905432
59	0xc00127593a0df296	-2.1442131553179236
60	0xc00f59994d71ad6b	-3.9187494325939745
61	0x40131ebce2c6bcd1	4.780017417316416
62	0x3fcc9f472eba1810	0.22361078054035533
63	0x3ff5aca51db669b1	1.3546496544500821
64	0x3fff5e484f54566c	1.9605181788259882
65	0x3fc39f7fef2ef8fc	0.15330504588013827
66	0x401683dc53b78148	5.628770168376214
67	0xc011aac91bbf76ee	-4.416782792626448
68	0xbfdfa7d4e26b0132	-0.4946186267007021
69	0x3f841d489fdb0edd	0.009821479204567602
70	0x3fe47e60a4fe122c	0.6404269430646017
71	0x400828bce8481111	3.0198915621750833
72	0x3ff86426fec44d8b	1.5244512512043424
73	0x40190ec810a5dd0f	6.264435062526231
74	0xc0119719f065cb1c	-4.397559887135483
75	0xc010f0c15a92f196	-4.235112586230022
76	0xbff03ec524b55c6a	-1.0153247293399326
77	0xc0109e024aca015f	-4.154305618838719
78	0xbfffafeb790ec48a	-1.9804491738143803
79	0x3ff6ac695f43b2d9	1.4170926781909456
80	0xc0131e8c5dab4b58	-4.77983232839582
81	0xc00191b5a3990501	-2.1961472302506313
82	0x401517c8bd736643	5.273226699989723
83	0x401102c3d4ea0d8f	4.2527001636366455
84	0x400af4fffb60d8db	3.3696288718157184
85	0xc0090cc9367eaaa4	-3.1312431580930298
86	0xbff33f910e4920ac	-1.20301919536909
87	0x4005ecc309bbdfb9	2.7406063805064744
88	0x401495f6887f2d48	5.146448261987935
89	0xc00f9314793cccfb	-3.946816394012442
90	0xc01236e60142a3b5	-4.553611774151183
91	0xbffae0f43ca958d6	-1.6799204225149444
92	0x3ff10877f7f59370	1.0645675359639561
93	0x3fc9fbe48afd60cf	0.2029996565495424
94	0xc010df5d863fdf17	-4.2181302048191105
95	0x3fd4329716e358c2	0.3155877803341235
96	0x3fe4f414f80dfce3	0.654795155030936
97	0x3fe9d03d6dfcc5b0	0.8066699169341316
98	0xbfddab528dd726b1	-0.46358169414143463
99	0xc012e91e09be9bca	-4.727653648623297
100	0x3fcb7fc270990a94	0.21483641145649257
101	0xc006ba596d1c05a8	-2.8409908794571557
102	0xc01031078c51f5b4	-4.0478803563141135
103	0xbffa9bf389360ad6	-1.663074050885077
104	0x3feb1460c1c62ae5	0.84623754354956
105	0x4001ebc96854a643	2.240130248149201
106	0x4005de606409d330	2.7335822883127534
107	0xc008c04020077ec7	-3.093872308949219
108	0x4012d7da638dee47	4.710794024980323
109	0x3ffe099a1c2dcd5a	1.877344236444364
110	0xbfdb413d2ac3f83c	-0.4258568685180568
111	0xc004af56210d52ed	-2.585613496989359
112	0xbff29bcc162997d2	-1.163036428997192
113	0xc016e4d2a50a8be9	-5.723459795731267
114	0x400a428650e9a0d9	3.2824827500627234
115	0x3ff447e89260a81a	1.2675557821153292
116	0xc01223f0666e7a7d	-4.535096741192885
117	0x4014f2225dac787f	5.236459220554138
118	0x3ffb0887895bc505	1.6895823827329093
119	0x3ff019a26db7237e	1.0062584195859183
120	0x401d05f9896b0737	7.255834719808084
121	0xc0170e26b89b650f	-5.763819584354919
122	0xc011faf8f4f1ebb5	-4.495090319886846
123	0xbffae6ebc23ffbbf	-1.6813771808517541
124	0xc00e5f373fe65812	-3.7964920990152757
125	0x3ff85b15a97ea18a	1.5222374554524287
126	0xbffcb88a8625aa77	-1.7950539817926747
127	0x400c1c2fd58fa376	3.5137631115398404
128	0xbfd948d5bb76c160	-0.3950704889966996
129	0x4015605edd1b1714	5.344111876276447
130	0xc006008d5e0382a8	-2.750269636613968
131	0x3fbd25a628882669	0.1138557290033987
132	0x3ff90266d88d1ee7	1.5630863627465545
133	0x4005b05929275223	2.711107560646512
134	0xbfe9abc77b4aeb31	-0.8022191436824412
135	0xbff43582a6234584	-1.263064049697591
136	0xbff8a296347b95af	-1.5396940279109506
137	0xbfda23f391d408e5	-0.4084443019966229
138	0x401b235361b371a3	6.784497763230692
139	0xbfc058df87b527ea	-0.1277121937403643
140	0xbfaa30a11b80eb90	-0.05115226231324421
141	0x3ff2212ce5d2ef38	1.1330994584559004
142	0xbfe7690e3c8904d4	-0.7315741712883672
143	0x400954ff7be7cbb3	3.1665029220689234
144	0x401a2f929a9bdb2f	6.546457687151629
145	0xc019c72335d6eacc	-6.444470254175666
146	0x3ff0fa0ad0886dfd	1.0610454698388587
147	0xc005f8cb65847861	-2.7464816981364923
148	0x3fede0dcbe75557c	0.9336990089310997
149	0xbfef3f6c1ab06cb1	-0.9764919778130176
150	0x3fdf476329c4bbf5	0.4887321384330215
151	0x3ff5697ea48fba87	1.3382555416280029
152	0x4019408058480095	6.312989596743269
153	0xc0018681c1ac809c	-2.190677178456168
154	0xbffd447aae59875c	-1.8292185602699282
155	0x3ff5d7045fdb1f5e	1.3649944061634964
156	0x4002fdb48a755217	2.3738795105985093
157	0xc010aeb6ddbd0fc8	-4.170619454063804
158	0x3ff86b58692e81c0	1.5262073620470886
159	0x40069e56e28e48bc	2.8273141574546496
160	0x4006662f5a22b40b	2.7998950044479947
161	0x3ff7956a5d55838e	1.4739783902989276
162	0x4004c077d2676488	2.5939785421183537
163	0x400555fa05d91666	2.6669807869791837
164	0x4011ca840a043fe1	4.4477693142980295
165	0xbff0357e807a3daa	-1.0130600947048642
166	0x3ff880e7bf948b1b	1.5314710124591275
167	0x401239d9843232bf	4.55649382168184
168	0xbff9ab34c157c172	-1.6042983581974934
169	0xbfee1fd8eb578037	-0.9413876148719343
170	0xc00d75c9fe5f28e3	-3.682514178542179
171	0xc014ba7078a20f8c	-5.182069668666269
172	0xc0040adaaf981229	-2.5052999227794044
173	0xc0033a1ab284403b	-2.403371233616807
174	0xbfaf3de7c928e1f7	-0.06101917582094878
175	0xc0174a7339ca093e	-5.822705176311784
176	0x3ffe107b80355413	1.8790240295541067
177	0x401cbd92ca106a42	7.185130269290825
178	0x4004648ee4370809	2.5491006688398596
179	0xc0129727978134f3	-4.647611968289527
180	0x3ff3ebe6e1a7bdba	1.2450932325990451
181	0xbff655d7d286c589	-1.3959577773751752
182	0x40106cb6ccc8ea53	4.106166076434039
183	0x4006de6b4e3239f7	2.858603106410779
184	0x3ff03d2cb18d3ec5	1.0149352012266928
185	0xc005ed4dffb8e5dd	-2.740871427374016
186	0xc00482671e320bb0	-2.563673244383118
187	0xbfc2c0773850d885	-0.14649858712954625
188	0xbffc820b6b666a6b	-1.781749171763887
189	0xc001a195b8d5ebfe	-2.203898853329064
190	0x4002dd7548da92d9	2.3581338588431717
191	0xbfcab7760e80db7d	-0.20872379024669022
192	0x401778fd2da6fe29	5.868153298680718
193	0x3ff3189c805200ad	1.193508626223813
194	0xbff6d0a818d0263c	-1.4259415597210952
195	0xc004bda83c421086	-2.5926060397778796
196	0x3fa99c2971e0f795	0.05001954569932746
197	0xbff09969b2d068fa	-1.0374543175626614
198	0x400a5b1d0153e533	3.294488916752607
199	0x40069e7b7b2a9358	2.8273839590423613
200	0xc00b687d70fcff9b	-3.4260205104073527
201	0x401c766f48c068fe	7.115658890479834
202	0x4019ece35b70fe35	6.4813360488620235
203	0xbff7d9f653ad3a4c	-1.4907134312267258
204	0x401289890fc6a64b	4.634311911105736
205	0x3ff72170b3ee9fd0	1.445664122447841
206	0x3ff76652804375e8	1.462481022862784
207	0xbffdc660c652a706	-1.8609321352946053
208	0x3ff13d1f652ad5ad	1.0774225189064552
209	0xc0096545498b9b74	-3.174448561261153
210	0xc0110c1a62e1d442	-4.261819405587689
211	0xbfcf8cbe589e987a	-0.24648265196919167
212	0x3fd721775a421b39	0.36141761602668826
213	0x4009dea55fc0cc4b	3.2337138634407316
214	0xbff7e884b8a6abbf	-1.494267197888561
215	0xc015b601f63cd3aa	-5.427741858923506
216	0x3fdff3cf0b976a01	0.49925590641001355
217	0xc00c76f88fbdb02a	-3.5580912809146144
218	0xbff5a5a2f10f91e9	-1.3529385963857925
219	0x40007e55447e40b6	2.061686072447709
220	0xbfd55a103288232a	-0.3336220258211592
221	0x3fbc3a86120c9aad	0.11026800099043994
222	0xc0243835d31b823b	-10.109785649402616
223	0xc0099cc7041dcbcd	-3.2015514680474326
224	0xc00404a5bc9766f0	-2.5022692426399473
225	0xc002ac281fc3f69c	-2.334060905616594
226	0x40009f526be0e9be	2.077793925095846
227	0xc00247cbed6cc640	-2.2850569294758145
228	0x4008d3782c953fb0	3.103256557755195
229	0x4011b4b60a014ab1	4.426475673989146
230	0x4001bee9095cd189	2.2182179194880445
231	0x3ffb0c4175341e00	1.6904921129479362
232	0x3ffc0142e87bc785	1.750307949198459
233	0xc00474df730d7807	-2.557066820953881
234	0x4020dbffe38020fe	8.429686650648815
235	0x3ff4997f9876fc7d	1.2874752002387873
236	0x3fdd582bf6b6dda6	0.4585065755195167
237	0xbff3824c0586f766	-1.219310781088518
238	0x3fe8d08302f7f2ee	0.7754530961970809
239	0x400ed6a356dd29d7	3.854803732513783
240	0xc014e21b5ba41920	-5.22080748738361
241	0x40076bfa0338c600	2.9277229549122694
242	0xc010a386e55368c2	-4.159694274154562
243	0x400ee417bc1b0ef9	3.8613733955152125
244	0x4003733e30a7beac	2.4312709618751196
245	0xc01155170f0d4d97	-4.333095774828869
246	0x4001fc8521f07bc6	2.2483008052363145
247	0x3fcee9edcaeeff69	0.24151394280306285
248	0x3fe122151a02123e	0.5354104526491665
249	0xc003711bced6c168	-2.4302288207328964
250	0x3ffec253a1114970	1.9224430362415568
251	0x400a82d4e20b71ac	3.3138826045744363
252	0xbff99d96c4f495ba	-1.6009738629885377
253	0x40050021cb830d14	2.6250644587868326
254	0x4013965e8bdb0c73	4.896845040554683
255	0x4006e9c3fb57b801	2.8641433368820803

hidden2_hidden3 f8 [20, 20]
0	0x400cbf9cc824d0ac	3.5935607563242993
1	0xbfc896a78b47e8f9	-0.19209760952782753
2	0x401b14fc0b57434a	6.770492722703077
3	0x3fda2b7da4be85d1	0.40890446747115755
4	0x4008c83b1dba040a	3.097769005049945
5	0x3ffa37fac00cea61	1.6386668683977847
6	0x3fe3449d5373b4f7	0.6021258001252637
7	0x401f2b45eabc1b3a	7.792258899432278
8	0x3fd3103773484fa9	0.2978647828870132
9	0xc0035785e6cd1cb5	-2.41773586572125
10	0xc00311823edf03af	-2.3835492049988356
11	0x401179aa36a02e95	4.368813375021678
12	0x3ff7e111852e291c	1.4924483492237135
13	0xbfe2bce96670039b	-0.5855605126126763
14	0xbffcc0debb738bec	-1.7970874140089519
15	0x4001e4f4e2c014eb	2.2367952074879347
16	0xbfe6a5ad5e687bb2	-0.7077242702397284
17	0xbff759e3d7717018	-1.4594458022829766
18	0xc002a8ed5231a24e	-2.332483904018125
19	0xbfe6f11ad6d3666d	-0.7169317432228134
20	0xc008f42b87e2c51e	-3.119223653419467
21	0x40156ba031e7505f	5.355103282683642
22	0x3ff5e355b2bd0aca	1.368001650044493
23	0x3fe0c5d7635365af	0.524150556560178
24	0xbfefb78f9c2be76e	-0.9911573457932101
25	0xc00b6a3aeaba4321	-3.426870187577507
26	0x3fd27b29016c9213	0.2887671007067933
27	0xc00f833205995eea	-3.93906025289822
28	0x400bc665c41d27b3	3.4718737908742354
29	0xc01235b6e1f24a1f	-4.5524554542667195
30	0x4012cc7a4cb9ecd9	4.699685286376927
31	0xc0113b2e7d7d89ed	-4.307794533526686
32	0xc000f47f55bd7f2c	-2.1193834970907997
33	0x4001b007bf7d3c6b	2.2109522781461712
34	0x3fd702a812863bdb	0.35953714188593516
35	0x3ffd00e129c949e3	1.8127147323872286
36	0x400f388bb6d98fce	3.9026102337975095
37	0x400fff1be493cbbe	3.999564920196888
38	0x4005e681b8a62b25	2.7375521112166035
39	0xc01e95b05b58197f	-7.64618056035249
40	0x401186d8f8fd11f7	4.381687059827974
41	0x3fe27a1522902ce4	0.5774026560842711
42	0x401a01e11f3f59f8	6.501835335008302
43	0x3ff5d1e221df7567	1.3637410472068383
44	0xc01a5e985b832cb9	-6.592378072625416
45	0x400bf73650680c8f	3.4957090646508457
46	0x4009dc21901d5828	3.232485891242522
47	0x3ff191ecbe3373cd	1.0981261663175588
48	0xc00d6ad860c586c1	-3.677170520809199
49	0x3fcde89ff45966cd	0.23366164618601318
50	0x3fb8d0d1e0c86e6c	0.09693633783211347
51	0x40118a14e80baea0	4.384845376694699
52	0xbfd0458d7d10611e	-0.2542451592758129
53	0xbfea92e925c1202e	-0.8304334390059063
54	0xc011d97ef8329b64	-4.46239841278916
55	0xbfee61b27b8e06e4	-0.9494259274653953
56	0x3fda33dc885ebea4	0.40941537206070167
57	0x400bfff4b6e46c06	3.499978474470029
58	0xc0044e244f21f27c	-2.538155191634642
59	0xc00083e8927d77c7	-2.0644084400691756
60	0x3fb948c79d407dca	0.09876678074987591
61	0x40151fcfe791361c	5.281066530454634
62	0x3ffdbbf35b8782a2	1.858386380707238
63	0xbff37636c54a3c29	-1.2163608271255362
64	0x3ff2ffbaeaa0ae21	1.187434116853986
65	0xc00ec44727011616	-3.8458388373571877
66	0xbfe9da587a85b927	-0.8079035180105948
67	0xc0077b15ea7cc72e	-2.935100395138668
68	0xc01d2b9c79c0bd02	-7.292589094532788
69	0x400b0d8ea9e047ef	3.381619765431416
70	0x4000de89efeb2f1f	2.108661531796215
71	0xbffbc70c9f9a0edc	-1.736096023029794
72	0xbff7bc168ec8c98c	-1.483419950248023
73	0xbfdf89cb3e595bc8	-0.49278527344489165
74	0xbff446ce3f0398a9	-1.267286535404802
75	0xc01b776de9c2bce6	-6.866630222807748
76	0xc00c173814fb5997	-3.511337436600296
77	0x400ff5c7fe14ec6b	3.9950103616843555
78	0x4006ac57ccfc87b4	2.8341518415990894
79	0x40024b773040956c	2.286848427744806
80	0x40026f1d2d272ae6	2.304254868276405
81	0xc00e87a2f5078616	-3.8162287848397325
82	0x40134c28f732681b	4.824375021411494
83	0x4007e0f03cb5be77	2.9848332159961575
84	0x40147bd82a500269	5.120941792615306
85	0xbff3335d80f007c6	-1.2000403439164855
86	0xc002dd48222f5126	-2.3580477400484083
87	0x40052febe5cd6996	2.6483991578399566
88	0xbfe8708bbc00df36	-0.7637385055486223
89	0x40130bf488d4b859	4.761675012572675
90	0x3fefc6a90fbaecbb	0.99300053665447
91	0xc0078e2f94c09cfc	-2.944426691177453
92	0xbfe68d63723c0d04	-0.7047593337196365
93	0xbff0bb9e0312c201	-1.0458049888658254
94	0xc00d695e66ff2bd8	-3.6764495894071665
95	0x401468c1e4b3dbdd	5.10230214450618
96	0xbfdca2cba94506fd	-0.4474362519286926
97	0xc0072d876512bf3a	-2.897230901369679
98	0xbfc675eff979e434	-0.17547416383220737
99	0x3ffc09076f18f44c	1.7522043552155706
100	0x3fe8eccd3fe90384	0.7789064644094741
101	0x3fdd01616402a5af	0.4532092549003108
102	0xc0147dfe7a54d052	-5.1230410684839445
103	0xc01c922ad1a716a3	-7.142741466353672
104	0x400ad6f626e35c00	3.3549616850027633
105	0x4001e50d3acb13ae	2.236841639826216
106	0x3feaad191a8868b6	0.8336301344127353
107	0xbffca82063f95f35	-1.7910465150107033
108	0x4013e1f244f529f8	4.970650746787662
109	0x4002e09ef5c1e4a6	2.359678192119264
110	0x3ff7a504b82f6fe0	1.47778770396598
111	0xc010da34d17fc2f3	-4.213092111037201
112	0xc008a8e2cd6f480f	-3.0824638413987553
113	0xc0070ec61e3f9a2a	-2.8822138178977825
114	0xbffffa4fc4dde13d	-1.9986112299066712
115	0xbff12f38de210bb4	-1.0740288426320435
116	0x4005c334f1dc19d3	2.7203158278746087
117	0x3ff739ced386e6fa	1.4516132605335188
118	0x3feabe8402a4f1e6	0.8357563068053053
119	0xbff000b846b11cef	-1.0001757394218733
120	0x4018680f2276fe08	6.101620234024729
121	0xc018c97d91024650	-6.196768060458979
122	0xc00a94b33b264d02	-3.322607481104229
123	0x4000d1a5329d812c	2.1023658708874304
124	0x4004618bf90ff5f8	2.5476302583690504
125	0xbfe6f905e9e67749	-0.7178983276714713
126	0xbfe4cbddeaef6039	-0.6498860920501165
127	0xbfeeea726e5ec5cb	-0.9661190181415632
128	0xbff579727b74371b	-1.3421501943989316
129	0x400083d8b70f379f	2.0643781949538176
130	0x3ff0ba22b39c852c	1.04544325028139
131	0x4015dfc39a625fd2	5.4685196039717585
132	0xbfce9dd4bd985a39	-0.23919162042212053
133	0xc00dc56f2e7b43b2	-3.721403468262417
134	0x400aeca3e97ddac2	3.365547012475276
135	0x3ff29720c4b0ecf4	1.1618964846846298
136	0xc0031274f4e86cfd	-2.384012139647551
137	0xc014fa0ca0eaf231	-5.244188799228639
138	0x401495e9a81eafce	5.146399142144174
139	0x4010f67307bd616b	4.240673180517073
140	0xc0148bc77081b998	-5.1365029887369005
141	0xbffec3cf783b270d	-1.9228052803541147
142	0x3fe465b70fc2cc19	0.637416392119465
143	0xc002003d6406b730	-2.2501170935201102
144	0xbfb530b1f24f6cd9	-0.0827742783143778
145	0xc00d82434a5b8eb6	-3.6886049088660355
146	0xc000c73ffc0d4ef6	-2.0972900096475042
147	0x4001cb799cd3e9a1	2.224353051392612
148	0xbfe53ea01777fca4	-0.6638946970341704
149	0x401bbff6cab4302d	6.937464873550238
150	0xc000fb687ce32bba	-2.122757888491347
151	0xbfea3255e8176641	-0.8186444790873751
152	0xc001db89034b0449	-2.2321949250477116
153	0x40156efc674f68f6	5.358384718152811
154	0x3ff5dee828b54baa	1.3669206228412158
155	0xbfe86f15ca44f3a5	-0.7635601950238323
156	0x3ff19d00874b6618	1.1008305821363873
157	0xc00950b23353f3ec	-3.1644023904795997
158	0x3f983e58d79aee22	0.023675335082527955
159	0x40111656a459aa9e	4.271814887974555
160	0x3ffb5bd97a4f0930	1.7099241998372001
161	0xbfefde1bd56d968b	-0.9958628815190463
162	0x3fd2c6006c28d64c	0.29333506166890255
163	0x400b2bd560394d63	3.3964030759322426
164	0xbfc2c75c06ee80fa	-0.1467089685293173
165	0xc0017236b1d70a1c	-2.1807683843374104
166	0xbffdc13c4d2b8b8b	-1.8596766485650018
167	0xbff17a6b80a18f20	-1.0923876785900077
168	0x400bc1323b42a0a9	3.4693340902050136
169	0xc005fbb37546d40e	-2.7479008829345792
170	0x401490ae2f2741b2	5.141289459963831
171	0xbff31eee51624d5e	-1.1950514964163044
172	0xc00f06759aaeffd0	-3.8781539997726
173	0x3faec3feb7cf1296	0.060089073121649836
174	0x400cd406c6f0a027	3.6035285513098816
175	0xc0067d7bf979e8ba	-2.811271618874426
176	0x4000d9ca72aa2885	2.106343169992274
177	0xc01282fa4a1e6b5a	-4.627907903772973
178	0x400f5bbd59db56d3	3.9197947521268843
179	0xbfdf0f9db7fb67c8	-0.4853281304073076
180	0x4013c9e424eec570	4.947159363816681
181	0xbfcc2605e7f9a38f	-0.21991037203704564
182	0x3ffd9532e4851ec9	1.848925488144163
183	0xc0061cfe0f48454d	-2.7641564554147977
184	0x40001bb754157ec4	2.013533265024167
185	0xbfffcf91e2898bf2	-1.9881762360680537
186	0x4016bacec7a2b177	5.682429427437788
187	0xbfe11d14236c5b3e	-0.534799641786641
188	0xc00cb5d2a3933ec4	-3.5887806681929266
189	0x4020d5603cbb21c8	8.41674985679937
190	0x3ffa54e6acb28ce8	1.6457278009409553
191	0xc00a5430b21b286d	-3.2911085047281206
192	0xc01a1584655376e9	-6.521012862414616
193	0x3ffe03d250b2b33c	1.8759329941050984
194	0x4001e7bf3727aedc	2.2381576832757286
195	0xc0017ad8ff4417c1	-2.1849842016845007
196	0xbfe66ae2ef30cd62	-0.7005476638500279
197	0xc008318e3601b346	-3.0241970271366965
198	0xc0120612eca7002e	-4.505931565945543
199	0x40001354ec16deaf	2.0094393200377776
200	0x3ffb4ba244e2ab17	1.7059652987324563
201	0x3ff59a2f485ca1f9	1.3501427485117559
202	0x40026d8dd9fa9d0d	2.3034932164770283
203	0xbff66d5e9635b355	-1.4017015330857323
204	0x400de1b364acf2ef	3.7352054467468103
205	0xbfedc9ede5b905dd	-0.9308995711109521
206	0xbfe83737e5eee155	-0.7567405215150226
207	0xbffb7d970c301ade	-1.71816162835028
208	0xc007b2e2f9895fa2	-2.9623469824836812
209	0xc0158a7c4e3cd215	-5.385239813291737
210	0xc009b6b8ba40f560	-3.2142195273469696
211	0x3ff49c93f4fc6df5	1.2882270402686775
212	0x4013e8785c3e53fb	4.977021638206675
213	0x400689d5c79ca84d	2.817302283733659
214	0x400059cbed6935c1	2.0438459918720757
215	0x4011c34c64f35efa	4.440721108774364
216	0x4011a878e8570a23	4.414523725807643
217	0x4017fcf1c166658a	5.997015973925395
218	0xbffff02e277f70e1	-1.996137766159386
219	0xc002d9b50bb6143a	-2.3563023486081223
220	0xbfe205210e8f2b1f	-0.5631261143074403
221	0x4008498f685e6a52	3.0359180597127216
222	0x3ff77e9d6a5ba989	1.4684118418323087
223	0x3ff489bacdba2f95	1.2836254154417237
224	0x400b52ae81b12745	3.415371907442849
225	0xbfe2b43577006c0d	-0.5844981502772285
226	0xc00a67893e57bf4b	-3.300554740002473
227	0x40059393cb894c39	2.697059240462775
228	0x3ffe0e0e8e728ba6	1.8784318508485085
229	0x400188828bc95dbb	2.1916552468134944
230	0x3fe5e046b0d462b2	0.6836274579719286
231	0xc01846946a37315a	-6.068925532931042
232	0xc001247414f22016	-2.142799533499793
233	0xc01972380dd63afe	-6.361541954231823
234	0x40003a24e05d78d3	2.0283906487012273
235	0xbfdad1c591f427c0	-0.41905345204633804
236	0xc01908fb492b477f	-6.258771079317625
237	0x4006c2c3d33767d7	2.8451000691684203
238	0xbff6f61d74f629c1	-1.435086686020995
239	0x3faea0acf4721e26	0.05981960758168396
240	0x3ff8418c70605878	1.516003073663823
241	0x4002f9472dba3efc	2.3717177936995295
242	0xbfde781b87e464f2	-0.476080782611077
243	0x3ff33f125390545a	1.2028983368120607
244	0x3fe21aa0c49b6e86	0.5657504882796764
245	0xc007602f490acf59	-2.9219651895927368
246	0x4009db329c9327e9	3.232030127755014
247	0xc011caf48fb469d9	-4.448198552500309
248	0x400ac28d9c1026fa	3.344996661417892
249	0x400bd6b252b0bd1b	3.4798323116480225
250	0xbff8730e7974e38f	-1.5280899757765132
251	0xc003369d3075a43a	-2.4016670022870388
252	0x3fdd4a6f9c4a7d9d	0.4576682115820974
253	0x401b4cf8fb7e3b15	6.825168542460934
254	0x40102febc43c73a1	4.0467978155037665
255	0x3fe505b48a63045e	0.6569464400164511

hidden3_output f8 [10, 20]
0	0x4003c664dd55634d	2.471872071426708
1	0x4002d6d873bf9ac9	2.354905037197885
2	0x4001bdf873a080d9	2.2177590401989673
3	0xc01b0482a118a2da	-6.7544045611654955
4	0xc0216f7ee78729be	-8.71776507878246
5	0x3ffb736af416ae1a	1.7156781706534106
6	0xc0142cfc7789ba8d	-5.043931834965986
7	0xc0129aa9e4772e1b	-4.651038713239838
8	0x400c0dc85a99a90d	3.506729801000921
9	0xbff09ffbeaa304cf	-1.0390586057185833
10	0x3ff9cc60d41243ec	1.6123970302617137
11	0xc001d8bddce6ff91	-2.2308308847422684
12	0x3ff2734bc05112a0	1.1531484138842316
13	0xc00420267d4882e3	-2.5156984126809774
14	0x401347c1b745cee6	4.820074905048136
15	0xc000e873bcb06e6a	-2.1135020009367524
16	0xbff89405bb997f2e	-1.5361382797345402
17	0xbffaddc4d2a9bd08	-1.6791427830719972
18	0x400a887fc1e71285	3.3166499279635127
19	0x3ffb902b53873ceb	1.7226975691626716
20	0x40020803c4e74d81	2.2539134390914914
21	0xc01fd8900f915ef7	-7.961487048385371
22	0x4004a56176654400	2.580752301183111
23	0x3ff441bef2b707ce	1.2660512429288135
24	0x3ffe7c47b70265ca	1.9053418301394793
25	0x401ea628e8166d35	7.662265421265421
26	0xc0110530f52a20cd	-4.255069571205422
27	0xc0139a59109ec9b6	-4.900730380717894
28	0x3ff66990277fd69d	1.4007722418731767
29	0x4020956ed33da837	8.291861153866291
30	0xc016ac68b41f85d2	-5.668368162559505
31	0x4017d081c05e404c	5.953619962456354
32	0xc0114b67d6dcb0d6	-4.323638303012748
33	0xbff83297cfec90f5	-1.512351810649361
34	0x3ff34dd987b2d03d	1.2065062809679283
35	0xc010587ee74fb4e3	-4.086421598663239
36	0x4006b92b21b1845e	2.840414298276797
37	0xc01ac5b974d1e401	-6.693090272246082
38	0xc008120435ea39a5	-3.0087970935921526
39	0xc0083268072cb0ab	-3.02461248021253
40	0xbff620feda91dc1b	-1.3830555475121915
41	0x4011f892d1dbde0f	4.492747572941439
42	0xc01c2e6508d5e217	-7.045307291082756
43	0xc00897276da5eaec	-3.0738056722888043
44	0x3ff3e2d3c0b20bb7	1.2428777243774058
45	0xc0016a99bce84d3c	-2.1770510443108417
46	0x3ff9e18cfe8ff0c3	1.6175661033476423
47	0xbfe2591f6ebecea6	-0.573379246043676
48	0xc00fe68a5c269207	-3.98756858818729
49	0xc01c8243d2fe3ee1	-7.1272118537596905
50	0x4001a3afab79554f	2.204924907341286
51	0x4013bb7f37d41394	4.933102485961076
52	0x40122562ec92c51d	4.53651017804921
53	0x40112fe47b79f20e	4.296770028417553
54	0x401242bbe172d6b2	4.56516983283443
55	0x40160863f5206e0f	5.508193807701459
56	0xc002caf15aa21694	-2.349093158790149
57	0x4014b053aaa86683	5.172194162872645
58	0xc012b10c0dbafa90	-4.672897543465879
59	0x3ff3aa94a8add9eb	1.2291456784274668
60	0x4007273c73f96296	2.894158273742799
61	0xc00709e7b48eaccb	-2.8798364740410753
62	0x3fedc514c790c74b	0.9303077600254509
63	0x4018f4429d347c93	6.238535362556962
64	0x4005320cac9dbe6e	2.649438236774407
65	0x3fb0e3bdb82d6df8	0.06597505327720643
66	0x400c52967164329a	3.540326009626665
67	0xbffdd698be4027f4	-1.864891760984844
68	0xbfe0ffb086f67fe9	-0.5312121044153147
69	0xc0144ca2228081aa	-5.074837245076575
70	0x401a1cc0abaf52c8	6.528078730178727
71	0xc010dc9a8c267faa	-4.215433301782392
72	0xc017e7f090476d42	-5.976503614768548
73	0x40181b983ab3cd88	6.026947896217628
74	0xc013e28c58551646	-4.971238498872088
75	0x400d238bfd111ba7	3.642356850704761
76	0xbfc4a3cd1a472256	-0.1612488153753186
77	0x400d8f2b8f620eea	3.694907303028107
78	0xbff1d828e204c13e	-1.115273363957456
79	0xc012f3a704a7c2b8	-4.737941811312957
80	0xc01d6d9ab9f702b8	-7.3570355469716375
81	0x4006b1743384fe37	2.836647417541623
82	0xc0050fe9788a3308	-2.632769529073247
83	0x4001c084c60e014e	2.2190032456420914
84	0x3ff53a31fad90ab3	1.3267078207724523
85	0x3ff8d7c1f1da0401	1.5526751944855735
86	0x40095da798b5a5ec	3.170729821246587
87	0x3ffac89452dd630f	1.6739695774942367
88	0xbfde1891dd4b0216	-0.47024962053913677
89	0xc0123e1881d6b8e3	-4.560640362482647
90	0xc000191310f05571	-2.012243397077946
91	0x3febe67fc8c176d1	0.8718871041307584
92	0xbfd186aab196d817	-0.2738444074888106
93	0xc006c2a25e37cd55	-2.845036254957146
94	0x4000df0c9256dd82	2.108910697246473
95	0xbffa31c30e8b5f29	-1.6371489112988888
96	0x40038ab451c0ac44	2.4427267443584544
97	0x40129a3cf2299dc7	4.650623115339335
98	0x40144f517495e63b	5.077459165238504
99	0xbff0cb16437cd7e9	-1.0495817791211215
100	0xbfd6bbe9d49e29f2	-0.3552193237634632
101	0xc01c4e3c07f43220	-7.076400875358132
102	0x3fbea37799fd3155	0.11968181142328167
103	0xc00c7f36baf1d055	-3.5621161084218707
104	0x3ffa76d42e37159a	1.654010944870015
105	0x40065ad3fd0fd277	2.794349648518899
106	0xc003efb5c2abb2ac	-2.4920458992622425
107	0x401223b67122acc2	4.5348756482519
108	0xc013264f99240ba5	-4.7874130180597705
109	0x40091eeecd503971	3.1401039161784685
110	0x3fe2e6547c78b33c	0.5906164580424966
111	0xc004a05010dd810e	-2.578277713546533
112	0x3fe8b4e760f30208	0.7720829862155947
113	0x4002aa322a591856	2.3331034954490333
114	0x40089eb3889d2f40	3.0774908707589077
115	0x400aa5b0a860efae	3.3309033541281314
116	0xc00fa423a70719df	-3.955146126655776
117	0xbfe75a88f1d83a09	-0.7298016284492529
118	0xc00f71dc68b0a4cb	-3.93059617795061
119	0x4015cd2d5577a25f	5.450368247439285
120	0xc008211d081a4528	-3.016168654729558
121	0x400ac404e14c1432	3.3457124329893526
122	0xc0027618d98cedd3	-2.307664584744751
123	0xc00db4b8d1fd2514	-3.7132431416872667
124	0x3feb72511c45dd64	0.857704692097212
125	0xbfe9ca869cca4901	-0.8059723913486608
126	0xbff75d55f494788b	-1.4602870515732629
127	0x3fefe878c3d8abc2	0.997127897751277
128	0x3ff571f6f0ba69d6	1.3403233912891799
129	0x40135f50ee3bec44	4.843082163245587
130	0x3fa6144e87711b6c	0.04312367823927485
131	0xc005b0b324b03bca	-2.7112791887552463
132	0x3fc4777b85d0873b	0.15989631685175162
133	0x4011717fd757b617	4.36083923790786
134	0xc0268f589609989d	-11.279972733184247
135	0x3ff99f41dc3b0e2a	1.6013811686288002
136	0x4006d4fa338fc7b8	2.8539928463223667
137	0x3fef07f8bfb94595	0.9697231049159877
138	0x3ffc350466965abf	1.7629436499898217
139	0x3fffa94f18f86d05	1.9788351989180353
140	0x400ab31ef0c3776c	3.3374613580371513
141	0xc005d71b38145212	-2.7300323849870063
142	0x3feb063c47fef854	0.8445111662074489
143	0x40121fb46e0a4343	4.530961722732914
144	0xc020693104f9e959	-8.20545211363485
145	0xc00499d3f08f450e	-2.575111274120565
146	0x4018cf8eede0d90b	6.202693669174788
147	0x3ff8d94b6df38453	1.5530504507990102
148	0x3fe46a0c35ecb5bc	0.6379452756133825
149	0xbfe5716971600a58	-0.6700942243917991
150	0x3feb27947e330ed4	0.8485815491516981
151	0x401b9b2c969237ae	6.901537277864845
152	0x40162b30b5ad9578	5.542178000182837
153	0xc00b23efcb3e677b	-3.392547214357305
154	0x400bded13e9d5679	3.483797539879387
155	0xc00ec9c0f788b571	-3.848512586459656
156	0xbfea10f2dd4ac4e9	-0.8145689317808805
157	0xbff5da1b866a9d21	-1.3657489061968777
158	0xc01b7f9e6c36f0c5	-6.874627772191336
159	0x40166220039c63ae	5.595825249119043
160	0x3ffea9ff1a3c0175	1.916503050306429
161	0x4008317586cbee19	3.024149945352985
162	0x4000d0a4aab3b31a	2.10187657700443
163	0xc0154909fc63cf1d	-5.321327155677662
164	0x400501a71662b4c6	2.6258069752571798
165	0xc01d1b0ada8e2912	-7.276408591200623
166	0x40041f02aec552ae	2.5151418355911437
167	0x400fb4395ca75c3c	3.9630000341963108
168	0x401e9592aa9ec8ca	7.646067300740649
169	0x3ffecb17e41204da	1.9245833310126756
170	0xc01548c920e8aafe	-5.321079744530605
171	0xc013df4aae0f0b94	-4.9680583187754515
172	0x3fdbca2c39b49516	0.43421464572232205
173	0xbff9a29b616bf6c7	-1.6021989636932845
174	0xc0133207cc5a6660	-4.79885787297971
175	0x4016980a66f141b8	5.648477180934087
176	0xbffe04b06516aab8	-1.876144785763854
177	0xc00c21ef9d011696	-3.5165703073460675
178	0x3fedf901d83c462d	0.9366463874195624
179	0xc0086b8e55405671	-3.0525175724276825
180	0xbffd3c2ebd7f33b5	-1.8271930124494535
181	0x400e089a1361c958	3.754200126096446
182	0x3ff5c654276c95c5	1.36092009925902
183	0x401c4f9c30fb056d	7.077744260140531
184	0x401283bc92930444	4.628649034712968
185	0xbfe00f8dfc756438	-0.5018987589675197
186	0xc0129336f45b9b47	-4.643764322367878
187	0x3ff09c3cac4f95da	1.038143799867035
188	0xc00fecbcd0c6b638	-3.990594512047007
189	0xbfd70368bab149e1	-0.35958307487194757
190	0x3ff24cd5b34fe59d	1.1437584881190113
191	0xc0082ed6452cf6ec	-3.0228696255061234
192	0xbfedb92648edd69e	-0.9288512634654642
193	0xc01968e3765e64d9	-6.352430200110768
194	0x3fff11bc3af42018	1.9418299010158133
195	0xc0193fccc62d056a	-6.31230458879268
196	0x4001502ccf8175af	2.1641479693778005
197	0xbfd9fbdbd6b121c1	-0.40599723783500613
198	0x40199b06c2b3166d	6.401392976933136
199	0xc0113254e9ab49db	-4.2991520415111735

hidden_bias f8 [20, 1]
0	0x400d736cae2873b8	3.6813596349806765
1	0x40090bcc6e88775b	3.1307610164066495
2	0x3ff42a145888e802	1.260273309554123
3	0xbff2e95f9cf10ad8	-1.1819759493379731
4	0x400936a0073cbd5d	3.151672417203072
5	0x3fe257c423f1229e	0.5732136442175777
6	0xc01310bd1feb2638	-4.76634645340669
7	0xbfdac83cd106fdec	-0.4184715310366005
8	0xbfef0c5427b61bb1	-0.9702549720394612
9	0x3feda84a1ef25323	0.9267931560922061
10	0x3fe77052844576a2	0.7324612220215452
11	0xc0028448deb3e326	-2.3145921133658645
12	0x400a423789501a77	3.2823324897356616
13	0xbfde97033386cf27	-0.4779670718373716
14	0x3fd28027469dd3e0	0.2890718640913388
15	0xbffb1657fd405c32	-1.6929550068505361
16	0x4010ad86becac9c5	4.169459324958045
17	0x4005b292a39751ce	2.7121937542490064
18	0x40150b47d653eefb	5.261016224739929
19	0x3ff9187678863842	1.5684723575573263

hidden2_bias f8 [20, 1]
0	0x400e80d8a4944f53	3.8129132135162904
1	0x3ff736d809aafee5	1.450889623418271
2	0xc004e56a7fe5fa18	-2.6120195381220235
3	0xc0000b10c97ecae5	-2.005403112584974
4	0x4004b12715c70df0	2.586500330102119
5	0x3ffb3039ce7d0e46	1.6992738786656374
6	0x3fcc04ba4bf55c90	0.2188942786112631
7	0xbff41211542c5404	-1.254411057282824
8	0x3fd4cf1b48bb576c	0.3251407823821555
9	0x400453d018fccddf	2.5409242584371294
10	0xc018cec03ada10b4	-6.201905173835417
11	0xc00ba21f09b8342b	-3.454160762723878
12	0x3ffbb3d98aac071d	1.731408635795055
13	0xc01774b6ec6cae66	-5.8639790479024665
14	0x4014a02268a92427	5.15638125927311
15	0x40029f49966131d5	2.3277770756160217
16	0xc00905b8e6d0f631	-3.1277940781135602
17	0xbfc64a156ff9bf24	-0.17413585631901995
18	0xc007b1245e09b8ec	-2.961495146438315
19	0xbffa99df1ca17163	-1.6625662916549906

hidden3_bias f8 [20, 1]
0	0xbfe9d6ee4c191708	-0.8074866758622372
1	0xc000798f91abe4db	-2.0593558674414516
2	0xbfa831fc5c11d2c4	-0.04725636123558766
3	0x400db78d2e304186	3.714624749038367
4	0x3ff850c9de9e8903	1.5197237678590347
5	0x4011c5029833eb11	4.442392709893071
6	0xbffd8a38ccf00b89	-1.846245575464055
7	0xbfe22a595082980f	-0.5676695415938883
8	0xbfe553a6f0cf02d3	-0.666461439446801
9	0x40100487c41c96d0	4.004424156422559
10	0x3f9cad21364f5146	0.028004187526520917
11	0x3fa78972e8eb17a2	0.04597052663079572
12	0x3ffb9fa6bf177626	1.7264773811833805
13	0x3fd3393c7027bbd7	0.300368413473675
14	0x3ff26c97c0d24833	1.151511910637521
15	0x3ff43521588871cd	1.262971254188517
16	0x3fd6e6b895a3bfdd	0.3578320943188354
17	0xbffab28cc27b5ae9	-1.668591270155668
18	0x3ff806faed0a326a	1.5017041453712872
19	0xc014f4f795f27eda	-5.239225714612724

output_bias f8 [10, 1]
0	0xbff3926aa3fc3712	-1.2232462316200707
1	0x40042a1b3afb526a	2.5205597503611914
2	0xc00a5bc1c07a74b2	-3.2948031461115415
3	0xbfe0de4719bc3539	-0.5271335127487539
4	0x400bc4cd5ed69971	3.4710948380699667
5	0xbfe570365b17828f	-0.6699477938783093
6	0xbfe0c98904c81c52	-0.5246014684097509
7	0xbfd53c73e0c50aeb	-0.33181473684469037
8	0xbfdbf192b4a99de2	-0.4366194500239243
9	0x3ff043a1d376dd5d	1.0165117512059034
