weights/weights.npz (npz, 891248 bytes, 8 tensors)

input_hidden f8 [128, 784]
0	0xbf72a3f0769b8775	-0.004550875959212654
1	0x3f8871bb02470348	0.01193567372036032
2	0x3f78d1825103ac58	0.006059178398781638
3	0xbfb07d8be65d7f4f	-0.06441568731451962
4	0xbfaf56a3cb52ab41	-0.061207884378140516
5	0x3fa37bea6b11209e	0.03805477673501055
6	0xbf94e8b57366785e	-0.020418963592981114
7	0xbf97b542e4b79af0	-0.023152394494810602
8	0xbf856d1b653893e5	-0.010462011362571697
9	0x3fc0ad98890ae617	0.13029772464305786
10	0xbf95a5dd2502d21f	-0.02114053285977679
11	0x3f9e931b81b09ee2	0.02985804537834625
12	0x3f6a3e5c2382bd91	0.003203563650536708
13	0x3f94a14757eee82a	0.020146479360598026
14	0x3f908181ced70273	0.016119030236725295
15	0xbf9a1750064ddc18	-0.025479555496954104
16	0xbfa81d71d270e030	-0.047099644602383584
17	0xbf9992107b626a38	-0.024971253901279605
18	0xbfa69be0551cd947	-0.04415799178097984
19	0xbf81f578de5e4c7d	-0.008768982206481585
20	0xbfb2f7949bfe936d	-0.07409027870614944
21	0x3fb9ce457868aae1	0.10080370130223627
22	0xbf88ce0ce4398231	-0.012111759867537849
23	0xbfa5da58493dd4ea	-0.04268146413861891
24	0xbf75076093f6d818	-0.005133988626246498
25	0xbfbb72db16e36487	-0.10722131069941741
26	0xbfb3372acee20c33	-0.0750605349622198
27	0xbf903df9983feeb7	-0.015861415784441415
28	0x3f668c22d1201ef2	0.002752368928671583
29	0x3faface784aac813	0.06186603064033149
30	0x3fb160134ecde603	0.06787224458630452
31	0xbf974214775d68b6	-0.02271301249070553
32	0xbfabf092f522f863	-0.054569809364225084
33	0x3fae221602657c98	0.05885380534413648
34	0xbf9f64f55451b7be	-0.030658562919078973
35	0xbfb986561fff5d31	-0.09970606118382787
36	0xbfb65ac43b1d625b	-0.08732248728973373
37	0x3f9e4c36ec047c91	0.029587610392920075
38	0x3f641499a87ad06c	0.002451229203723362
39	0x3f9397b2d9d7124d	0.019133371873765893
40	0x3fa5c9a49f2ebfed	0.04255403941294831
41	0x3f92e70d4dbed805	0.018459518308837648
42	0x3fa6eaa0a5396920	0.04475881592652997
43	0x3faf30c867547ed3	0.06091905843117975
44	0x3f4c6f448b4dbfab	0.0008677563369996385
45	0x3faef33ed1639577	0.06044956499116954
46	0xbfb22ec49f0f6c5c	-0.07102612384135071
47	0x3fb0abd7e627ef5e	0.06512212151568295
48	0xbfaae13796de75e0	-0.05249952046072415
49	0x3f91b9acc0ea3a2d	0.017309855722993973
50	0x3f80e973b80892e8	0.008257774404293497
51	0xbfa1b6c75579cb79	-0.034597615417530876
52	0xbfa44296579e0118	-0.03957052058740568
53	0xbfb9325d60ae0fb6	-0.0984247551951388
54	0x3fb2da656661e8f8	0.07364495992252162
55	0xbfb7a82bb054a752	-0.09240983061741062
56	0xbf573d5c9f33343c	-0.0014184383879183434
57	0x3fba908057c9003f	0.10376741545860656
58	0x3f5619d8dfa360b8	0.0013489358812446683
59	0x3f8f01e1f08dadee	0.015140309480293514
60	0x3f5c0b32b92f96ba	0.0017116542192012045
61	0xbfa38661aba0dde3	-0.038134624672632865
62	0x3faa4ca1290918f2	0.05136588693544465
63	0xbf58d12e387ddc98	-0.0015147162793860743
64	0x3fbbc218e82d95e8	0.10843043964776877
65	0x3fbf002c05ba8214	0.12109637393815148
66	0xbf83a35a44a8200f	-0.009588914127576257
67	0x3fa54e07cb526516	0.04161095005947339
68	0xbfab77e03dd637d5	-0.053648955868183336
69	0xbfb249f8817600ba	-0.07144120369594278
70	0xbfa9b84ecdf5b6bb	-0.05023428215177491
71	0xbf6b78a0f36e4e68	-0.003353418690901045
72	0x3fb129f398819f82	0.06704637978839226
73	0x3fb5b9a19f6a3a76	0.08486375944105781
74	0x3f8d8f7108bfda9e	0.014433749274741555
75	0x3f82db762cd1fae9	0.00920765232353689
76	0x3fc020a628de106c	0.12599637027244925
77	0xbf973082fde514a4	-0.022645994898330316
78	0x3fc01496df9a7cb7	0.1256283370794102
79	0xbf741c3a91113102	-0.004909733558701614
80	0xbf9baf682bd5fc65	-0.02703631179383272
81	0xbf94b82d6b2198b2	-0.020233831084987393
82	0x3fac4711c8ac1bf8	0.05522971701252993
83	0x3f84c8bdaeebbf28	0.010148507977163115
84	0x3fa9f41c2318f92a	0.05069053581654466
85	0xbfa66626faaead53	-0.043748109913702614
86	0x3fb10d3c52a5e2b0	0.06660820977948378
87	0x3f8036405a0f98f0	0.00791597628444804
88	0x3f9339e6fb92fde5	0.01877556715476016
89	0xbfb219ce39582414	-0.07070626163489663
90	0x3f83954986feb517	0.009562086517542796
91	0xbfc4974c861f45e0	-0.16086727665837852
92	0xbfb02de24493b30b	-0.06320013212434732
93	0xbfb2ba073fe495ae	-0.07315106687436554
94	0xbf9ceda75e029e87	-0.02825032721798817
95	0xbfc0ba17cfe19ed8	-0.1306791081471974
96	0xbfd1b3976d378c42	-0.276586395890437
97	0xbfc47f86eb9a3b2a	-0.16014181617762208
98	0x3f90a14baee79e13	0.01624029402765188
99	0x3fc0a9ca291e9082	0.1301815701273235
100	0x3faf01cb14f9c35b	0.0605605567078615
101	0x3fbaa8495d45e647	0.10413034941839171
102	0x3fd170e711a201be	0.27251602861363355
103	0x3fc54f9a476217a0	0.16649178014284605
104	0x3f9980cbc444bc65	0.024905380110052628
105	0x3f7ec8065e35a235	0.007514977335951791
106	0x3f95aa0ddf94e2ea	0.021156517764412998
107	0xbf9df2fc666095aa	-0.029247230290044314
108	0x3fb4e158378bfdf9	0.08156348568081019
109	0x3fb8307855256ab1	0.0944895942570081
110	0x3f7dd14fe6d7f7dc	0.007279693714279358
111	0xbfb06613aac46927	-0.06405756873246969
112	0x3fb71a909a7bd901	0.09024909755303058
113	0x3fb713f9e99fb2fa	0.09014856294352205
114	0xbfa72dfb585e00be	-0.04527268842412145
115	0x3f754f6930429337	0.005202685253753717
116	0x3fa211b74ad90a31	0.03529141224546029
117	0xbfab1ac3381a6eb7	-0.05293855724195622
118	0xbfc143bee78ad325	-0.13487993531966783
119	0xbfc21a692d8e5fe7	-0.14143099522038868
120	0xbfc45ec1bb43b8a7	-0.15914174693847835
121	0xbfa6a431b4e18d1b	-0.044221452074248734
122	0xbfab3fada8675545	-0.053220202262006334
123	0xbfbe47096e95d869	-0.11827143621289483
124	0xbfb331eb5053f043	-0.07498045645837785
125	0xbfbd304a978d9398	-0.11401811790490368
126	0x3fa4991be33bdaa6	0.040230628479482264
127	0x3fb3a003569ff5c5	0.07666035523285249
128	0x3fbc78eb4b11aad9	0.11122007925738887
129	0x3fd2b2ba3a870c23	0.29215865817622183
130	0x3fcd56242758415c	0.2291913215744995
131	0x3fc73fe775dbb884	0.1816376996498016
132	0x3fc3a751c7ef04a7	0.1535436846006963
133	0x3fbf6440f0a466fa	0.12262349963239308
134	0x3fb94abdf4c8afa9	0.09879672266168761
135	0x3fa2276091fdcc2f	0.035456674405303416
136	0xbfa4b7934bdc4a0e	-0.04046306897193484
137	0xbfacca64bc01d183	-0.05623163981445869
138	0xbfa7934eac69fa3d	-0.04604574064886833
139	0x3fa4e4cf4ea16daf	0.040808180187663516
140	0xbf95729f7d038e87	-0.020945064549677397
141	0xbf9c3da550c916a9	-0.027578909927135218
142	0xbfaa23001af57028	-0.05104828194700445
143	0x3fa0269aac17a818	0.03154452658402834
144	0xbfc3bfdb06d22a84	-0.1542924674325442
145	0xbfca7ffc6c3718ca	-0.20703082355448138
146	0xbfc6fe893d1e6b0f	-0.17964282497708736
147	0xbfd01d8df8eb6c93	-0.2518038683753698
148	0xbfc5869f305490d7	-0.16817083225135462
149	0xbf98bf6960804478	-0.02416767741675982
150	0xbf7e7d52017031d3	-0.0074437335342846965
151	0xbfb64c6ed327f5dd	-0.08710377364328488
152	0xbfd087db335bc8b5	-0.25829200759393284
153	0xbfd037acb682e753	-0.2533981115662886
154	0xbf97a65712c925ec	-0.0230954747405913
155	0x3f910191198f7881	0.01660753935345172
156	0x3fb33a653f21b3fe	0.07510979453373065
157	0xbf90d52213b5675e	-0.016438038304250717
158	0x3fb14d77cc945551	0.0675883173429004
159	0x3fcc7983d72acb6e	0.22245834356507593
160	0x3fcc13ca0841bc24	0.2193539181057257
161	0x3fccaf38f9a76d9d	0.22409736814630046
162	0x3fcc54723c37ebf3	0.22132709446290696
163	0x3f9a9cae1615d2ae	0.025988311861015738
164	0x3fad40803ef7278e	0.05713272827740844
165	0x3fa1d07559ab587f	0.034793536373102
166	0xbf9e68e847178684	-0.029697064723114966
167	0x3f94fdd5beaca29a	0.02049955345424568
168	0x3f92e3030f40e2f4	0.01844410687064886
169	0x3fab97f492cc8fad	0.05389370243054201
170	0xbf7ded7ee3500d10	-0.007306571632401018
171	0xbfab866be9e01744	-0.053759929942357704
172	0xbfc478943032b647	-0.15992977479383993
173	0xbfc7ce3f1996ea63	-0.1859816431950377
174	0xbfd6b7ae9b57ba45	-0.35496106310066394
175	0xbfb1518cb4de90e5	-0.0676505986762695
176	0xbf7b2535811287d1	-0.006627282143343253
177	0xbfa5af0ff147fba2	-0.04235124416663118
178	0x3f9c9851d503fe4e	0.027924803377571465
179	0xbfc763a4dc87e3e3	-0.18272839325052734
180	0xbfc1e0e4a3d87229	-0.13967569351452028
181	0xbfbba9a3c4828255	-0.10805724666216439
182	0xbfa4131efaef3634	-0.03920838177837674
183	0x3fac1bd138e294f0	0.05489972896001827
184	0xbf9c78faf5fea5ed	-0.02780525328095067
185	0xbf87983a8df47be4	-0.011520822007296823
186	0x3f91f17ab59550fe	0.017522733052218513
187	0x3fd54b4417805107	0.3327188710693609
188	0x3fd1bc86ebbd9495	0.2771317770150941
189	0x3fc6b4939d5e75ec	0.17738576110870896
190	0x3fccad7ec80e40dd	0.2240446545442926
191	0x3fcb92e725850266	0.2154206212235465
192	0x3fb53ced73195734	0.08296093044313296
193	0x3fb576238b8b4a09	0.0838339057620844
194	0x3f9f12608e4b20e3	0.030343540844825944
195	0x3fa0527f145c2232	0.03187939761670967
196	0xbfb2abaf75c309ec	-0.07293221116109522
197	0xbf65fa1d806a6bb2	-0.0026827408031073413
198	0xbf8a7d1991c0b3e6	-0.012933921585579666
199	0xbfb8350505ac5ce5	-0.09455901516445271
200	0xbfd271060585ed3b	-0.2881484083115599
201	0xbfc20403234832a2	-0.1407474443698407
202	0x3f8b3b9aed2334dc	0.013297281610358196
203	0x3fc0401462ae1ab0	0.12695555513729095
204	0x3fcc23f7a7df23bb	0.21984763810021754
205	0x3fbb38879ef829bc	0.10633132582748933
206	0x3fbe35af9f610ac7	0.11800668374147981
207	0xbfbf61a2412602d4	-0.1225835236600788
208	0xbfc6e5fbca0b720e	-0.17889354100670157
209	0x3f5630c1debfe16d	0.0013543980849118579
210	0x3f82062d4aaae793	0.008800844041036792
211	0xbfb8d3cec8003dac	-0.09698192961535906
212	0x3f8813cd04cfe480	0.011756517133095779
213	0xbfa87ae96d77c45f	-0.04781274281766267
214	0xbfac597b83e10e53	-0.055370197151685695
215	0x3fd36aae23747962	0.3033862444152843
216	0x3fd6a9a325e9364b	0.3541038389419994
217	0x3fcd3cd1f70c7ab6	0.22841858447005386
218	0x3fd182fbbbbd1bfd	0.2736195882211517
219	0x3fc3143943f681d4	0.14905467813970452
220	0x3fc1cddf3878c431	0.13909521348389967
221	0x3fb0effb0bef216e	0.0661618141304012
222	0x3fa370fe3228a8a0	0.037971442816642
223	0x3f79a74b9a478dbb	0.006263060877674527
224	0xbf95514f016be72f	-0.020817980252991915
225	0xbf7adc9f2a94e65d	-0.006558057540411247
226	0xbfa5e8ab98842a63	-0.04279075848360916
227	0xbfc3eb1039f66fe7	-0.1556110651989677
228	0xbfc89278db017a7b	-0.19196997350350728
229	0xbf5bede3e705571d	-0.0017046666726705025
230	0x3fcd0a78bd754078	0.22688206911925923
231	0x3fc3baa6c6691dd9	0.15413365066545628
232	0x3fd08d2ab380294c	0.2586161377845613
233	0x3fa59edb09caad44	0.04222759718444505
234	0x3f8f542ebadc478c	0.015297284200219051
235	0x3fd73b85af374287	0.3630079470722553
236	0x3fd0379510b257f8	0.25339247351200767
237	0x3f9c7a993ff551c7	0.02781142666693073
238	0x3fb3d146689e8372	0.07741203359775087
239	0xbfb205d963143474	-0.07040175122183873
240	0x3fa5c486c36d3a0d	0.04251500258998329
241	0xbfb7255d21d9ceb4	-0.09041387630878256
242	0xbf95a635ee8cd664	-0.021141855893083053
243	0x3fd2d17d2bc7ff67	0.29403619075309567
244	0x3fc9bd48a8cd3fdd	0.20108898393891553
245	0x3fd5af72241bdde4	0.33883336569075895
246	0x3fcfec1e0bc01c4c	0.2493932301879077
247	0x3fd0bf0bee3b7262	0.2616605593191591
248	0x3fbfcd4633b3e172	0.1242259861209101
249	0x3f6cf7eb7894c689	0.0035361861270296097
250	0xbf75a8289650d128	-0.005287321609149388
251	0xbfa7eacfeb6e7cf2	-0.04671334980889154
252	0x3fa41cbfb916d75a	0.03928183683767257
253	0xbfa828d1e4349b82	-0.047186431033245504
254	0x3fa70987fe8fb471	0.04499459249914473
255	0xbf9f55a523100084	-0.03060014750008168

hidden_hidden2 f8 [64, 128]
0	0xbfe5e7ca12bc747e	-0.6845445981922607
1	0xbfdc6222fa453c05	-0.4434897846267066
2	0x3fd4a718ad587eb1	0.3226987545803964
3	0x3f817da0fddd695b	0.008540399310437754
4	0x3ff3cb6536763a09	1.237157070867058
5	0xbfd7cef4e63afa86	-0.37200663073955587
6	0xbfd2ec8c8ccf23dc	-0.29568780661480587
7	0xbfbb239e3d27fbb3	-0.10601223939009578
8	0x3fa44a46de79316c	0.039629187257193305
9	0xbfcb81263533fbef	-0.2148788223057347
10	0x3fd82cf34abb4cc2	0.37774355218898503
11	0xbfe1517ed7369e34	-0.5411981776605388
12	0xbfeab10b30603046	-0.8341117806280713
13	0x3fe029a3edc7b0db	0.5050830501691296
14	0xbfbad9b7bef7c0f2	-0.10488460933970936
15	0xbfd1378b37e930a7	-0.2690151258473272
16	0x3fc5468047770406	0.16621402253625223
17	0x3fd98ff84f1daa53	0.3994122288337724
18	0x3fdc0acc91f5fcd6	0.43815912488930786
19	0x3fa12c394538f5ff	0.03354052515031113
20	0x3fb7d5e1355fe096	0.09310729554261096
21	0xbfcbb02aa0608075	-0.21631367522150283
22	0xbf951dc3e4223bb6	-0.020621357726266352
23	0x3fbe0e09b2ba0265	0.11740170110170707
24	0x3fae6337744853d2	0.05935071272339311
25	0x3fd771d0195ba768	0.36632158733720255
26	0xbfd1d42c377662f8	-0.27857499519591
27	0x3fd07908feb2b25f	0.2573873984609118
28	0x3fb7fcd7457863ab	0.09370179601718458
29	0x3fd0dd630695ecca	0.2635123791039403
30	0xbfa875df82de5573	-0.047774300313146244
31	0xbfca9180c51e0fd1	-0.20756539940714316
32	0xbff0b2480bbc85a1	-1.0435257395223305
33	0xbfd60170e975cd36	-0.343837955463829
34	0x3fd23997f304e53f	0.28476523144088967
35	0xbfe1387be5a2550a	-0.5381450161973202
36	0xbfd8a79f3c9e8375	-0.3852308361038504
37	0x3fd84833323ba5ce	0.3794067373806599
38	0x3fcebf967480d04f	0.2402217930663277
39	0xbfe3d9bada10fb2e	-0.6203283557041226
40	0xbfdfc3fea4918a32	-0.49633756705421483
41	0x3fce18e5f3e027db	0.23513483436573676
42	0x3fe538a7a05d3071	0.6631658680066846
43	0x3fb264878e04174b	0.07184645859896681
44	0xbfb2e1d29d0a9938	-0.07375828107851568
45	0xbfccd003cde89b61	-0.22509810976154213
46	0x3fd977d41297254b	0.39793874564619064
47	0xbfe7736ea8e4d94e	-0.7328408526143819
48	0xbfce19dec816e40c	-0.23516449708930087
49	0x3ff024aaddd02736	1.0089520134519723
50	0xbfd6c5883a1bc342	-0.35580640482571735
51	0xbfdd2bde345748d1	-0.45580248938962337
52	0xbfeb1391355da8b2	-0.846138576727091
53	0xbfe5920a806a25fd	-0.6740772731874923
54	0x3fee4ae16ae5f561	0.9466406905991499
55	0xbfe0eba344a222db	-0.528764375733853
56	0x3fb14409dbc53983	0.06744443526733872
57	0x3f923bf303bc8524	0.017806813338329466
58	0x3fca02dac0ba59cd	0.20321211252730934
59	0x3fda4db1bd8bdcc7	0.41099208364853407
60	0x3fdf526e407ab7ae	0.4894061689072896
61	0xbfc3e5e9f9c8c672	-0.1554539174699588
62	0xbfb1f29c098a1232	-0.07010817749876067
63	0x3fc9370c735b4c35	0.19699245102546717
64	0xbfd718b8bb2457d5	-0.36088388705809155
65	0xbfc355ddf834f317	-0.15105795497392968
66	0xbfe1e60880fa5d2f	-0.5593302268124826
67	0xbfcc2289b54be5fe	-0.21980401375166986
68	0xbfd2db6500a9d063	-0.29464078011301903
69	0xbfd618b816e1fc34	-0.3452587340797806
70	0xbfe9826bc5fdb62a	-0.7971705309880168
71	0x3fddd7d2f137a72c	0.4662978511465663
72	0x3fc1608ab6594513	0.13575872329469316
73	0x3fe4ee708b19aee0	0.6541063992312637
74	0x3fd3240c6a720e1c	0.2990752257830722
75	0xbfca6e5e6ce53ac9	-0.20649318997535307
76	0x3fe7f1df382c8d68	0.7482753846310688
77	0x3fe9937d78b9002d	0.7992541654457505
78	0x3fcb2316062bd3c5	0.2120082407124341
79	0x3fd2a218c702e5af	0.29114360270213074
80	0x3fe86dcc0914f9b4	0.7634029557591959
81	0x3fd6242414ef7ebe	0.3459558681915772
82	0x3fcdb34375705f61	0.23203318819355004
83	0x3fbd8d4a5a7ed4d4	0.11543717107163626
84	0x3ff0838be5e9a24c	1.0321158390962806
85	0xbfe5709df24ded64	-0.6699971897609598
86	0xbfe215ab20a13c03	-0.5651450764943323
87	0x3fbd7cf2643bc67b	0.11518778750521534
88	0x3fda85afb216386b	0.41440956488884834
89	0xbfd137f64aa4b1f5	-0.26904065408123695
90	0x3fc35ec7bab34aa4	0.1513299619314995
91	0xbfa10b2e106af003	-0.0332884211579483
92	0x3fdc230a2a399046	0.4396386539795042
93	0x3fcf91e4f3535981	0.24663984185344748
94	0xbfc2fbfdeca6860f	-0.14831518225859994
95	0x3fe581b8af987521	0.672085135421785
96	0x3fce5974c45e2372	0.23710498417156206
97	0xbfdd72082edd9ef6	-0.46008495880822353
98	0xbfc61d8c493195e4	-0.1727767331496316
99	0x3fe38b05b3e61a78	0.6107204927109953
100	0xbfe5653f716b138a	-0.6686093535614515
101	0xbfe4f03b8c498629	-0.6543252696976128
102	0xbfc96bbc8e8e1117	-0.19860035858813127
103	0xbfdf52ee74d2511d	-0.48943673523287307
104	0x3fd9fd77ab6b75b5	0.4060954259892598
105	0xbfe9c67bf54c4d2c	-0.8054790297486867
106	0xbfcf60c443f64ff3	-0.24514058416809767
107	0xbfae85c717b12aea	-0.059614392892930315
108	0x3fd3752544ad340b	0.30402499872872174
109	0x3fe8ba6f6ba9ff7a	0.7727582075894894
110	0xbfae8eb50417ea3d	-0.05968251872032624
111	0x3fc2bd20a65f0701	0.14639671443551808
112	0xbfd98caf5bef3432	-0.39921173074691574
113	0xbfdd9b644c37ed40	-0.4626093620606362
114	0x3fb210b4248b4889	0.0705673779696402
115	0xbfe3fdcc2774fbac	-0.6247311373370983
116	0x3fd3c572487ebe18	0.3089261730155797
117	0xbfc07175cd746d85	-0.1284625294873473
118	0xbfd5c1c048678baa	-0.33995062895535944
119	0xbf95ab18246405f7	-0.021160485478508986
120	0xbfd6b3a1561f4806	-0.3547137585675276
121	0xbfeb4f4b2af1b318	-0.8534293974640574
122	0xbfa9d3c8f3a9616f	-0.05044391607651987
123	0xbfd4b70769170619	-0.3236712003964342
124	0x3fd1fc834eb45a95	0.28103716550814656
125	0x3fe52f3364679bea	0.6620118104009383
126	0x3fd2526e8c737347	0.28628123966136737
127	0x3fc3525c3525fffa	0.15095093341005833
128	0x3fc9312cc2e922ad	0.1968131972992259
129	0x3fc0ea7d983fe860	0.13215608533920697
130	0x3fc3c21516b87005	0.15436042413136888
131	0xbfb6198f4d10c154	-0.0863275111339637
132	0xbfe9cc98f2622277	-0.8062252744721964
133	0xbf9b29fd44e57d44	-0.02652736409197344
134	0xbfb4a58c9cb5b2cd	-0.08065108133241523
135	0xbfd402d21a7abeac	-0.3126721628750413
136	0xbfb27ce8997ad275	-0.07221845385613242
137	0x3fb8481ddd047b57	0.0948504128068469
138	0xbfd2bbcb155b6b58	-0.2927119930806632
139	0x3fd8c41bc01218af	0.38696950680640446
140	0x3fbc7ff42004340a	0.11132741719866615
141	0x3fe064dfbfc3b052	0.5123137231253259
142	0x3fe556d1cd31f9cc	0.6668480880469416
143	0xbfa360d0e505e76f	-0.037848022419850184
144	0xbfb22fd9e8aefb6b	-0.07104265146970838
145	0xbfa7ae828adf37a5	-0.046253280117169816
146	0x3fa712195e322068	0.04505996012545738
147	0x3fd74c4ae2dcf43c	0.3640315261325815
148	0xbfd7953740f7425d	-0.3684824118072692
149	0xbfcf05fb53706105	-0.24237004827660527
150	0x3f40b2cf6691bb74	0.0005095970819989208
151	0x3f7d78d3fc035cf4	0.007195308746495533
152	0xbf94eddf82525fd5	-0.02043866379662503
153	0x3fcd6f2845a678ea	0.22995475197689724
154	0xbfc37b87b3f83aeb	-0.1522073391683628
155	0x3fdba7227a1bdbed	0.4320760910481443
156	0x3fd74ef8bb160a2f	0.3641950442326189
157	0x3fd6bf5973e6c14c	0.35542904203886816
158	0x3fcead6ca044d5e0	0.2396674902499134
159	0x3fdea155932b2092	0.47859706279678804
160	0xbfba499ab414063f	-0.10268561264458585
161	0xbfcc02f9d8423169	-0.21884081897259058
162	0xbfc51be8cc130106	-0.16491422619402146
163	0xbfe437a95ccdb9ec	-0.6317946255274456
164	0x3fb00c7efb3d07b1	0.06269067414998976
165	0x3fc5e48348f4c9c0	0.17103615820231077
166	0x3fd0e8f192f038a7	0.26421775197457936
167	0xbfcbc2fcdc4396b4	-0.2168880534656431
168	0xbfd3f917cc45259e	-0.31207842777492967
169	0x3f9fbbf9b917af70	0.030990507051611826
170	0x3fdea37141791d0d	0.4787257327447641
171	0xbfc5ce929c15bb63	-0.17036659833271547
172	0xbfb5ca794c7a9181	-0.08512075535924703
173	0xbfc7cb2c7f1dc340	-0.18588787276123675
174	0xbfb227072d72e60e	-0.0709080205878296
175	0xbfe730592567017d	-0.7246518831744165
176	0x3f7e674077a4df14	0.0074226873642187115
177	0xbfc01f3bf2d8855f	-0.1259531913538394
178	0x3fc0b15138c072b5	0.1304112937076717
179	0xbfd21e86334da45a	-0.28311305055701086
180	0xbfeeb5d7725d2fde	-0.9596974595710852
181	0xbfb20b11d737886e	-0.07048141006774397
182	0xbfaf34012e30bebd	-0.060943638695218884
183	0xbfc83642ba11da71	-0.18915590367733473
184	0x3fc6387a00f8b867	0.17359852836074482
185	0xbfc77736c95b05d4	-0.18332562286199894
186	0xbf7d3017cfdff8e3	-0.007125943198842163
187	0x3fb22f3b50ef4651	0.07103319860404979
188	0xbfca90fb2b892b02	-0.20754947305461974
189	0x3fdd445b11c40b59	0.4572971032613871
190	0xbfa09d7953e11d8b	-0.032451430787257506
191	0xbfd41adbafb35206	-0.31413929136513763
192	0xbfb4465db7190b10	-0.07919870109712357
193	0x3fcfd53e0b336865	0.24869514033236154
194	0x3fd07df8210a9ee8	0.25768855311115013
195	0xbfd5fa4485570464	-0.3434001257083479
196	0xbfd0f4276b6c51a1	-0.2649019764951622
197	0x3fed036197afab1c	0.906662746679419
198	0xbfd9d8469f5e4b77	-0.4038254314738689
199	0x3fd8c1953b44b7f6	0.38681536472256484
200	0xbf94013ff5c852cb	-0.01953601777684603
201	0x3fe04229d42f1b3f	0.5080765861720024
202	0xbfc5db82e6eeca21	-0.17076145435346837
203	0x3fc4ff4553b07a15	0.16404024683375043
204	0x3fd8266d69dfbbaf	0.3773454221654288
205	0x3fe4ad9795a3cdc4	0.6461904451993452
206	0x3fd59c6d43a8fc99	0.33767253501350464
207	0xbfc21673423a57ae	-0.1413101266268177
208	0x3fb829ad6f21e174	0.09438594783012438
209	0x3fc7024e958fe8b9	0.17975790312613585
210	0xbf87e87aa85019a3	-0.011673887502195173
211	0xbfaeaac44c6b335e	-0.05989659722181416
212	0x3f99bb88eec13fcf	0.02512945134395733
213	0x3faeff85385a3a79	0.060543215874635466
214	0x3f8c89db1c7adf49	0.013934814268722244
215	0x3fd0a8a877e27304	0.2602940722224931
216	0xbfcb411313e3930a	-0.2129234168161463
217	0xbfe65134cc2d2f59	-0.6974128711531008
218	0xbfcc263490a35a1b	-0.21991593420416752
219	0x3fb6ab7a63f09d4a	0.08855404796542135
220	0xbfd1fd57273903f9	-0.2810876734766335
221	0x3fbcbcd45d0bdf25	0.11225631019248945
222	0x3fc3c4a59f2b653b	0.1544386889643564
223	0x3fe668eb5b9f947d	0.7003075398939839
224	0xbfb19b51417d3c73	-0.06877620552880774
225	0xbfd6033f2e812492	-0.3439481691498908
226	0xbfc213489007eb2c	-0.14121348412285195
227	0x3fcad3de765d590a	0.20959072856448585
228	0xbfe8d7ebced19e26	-0.7763575591497485
229	0xbfdb100eb12208f4	-0.42285506532802164
230	0x3fb854e6356cb631	0.09504545978844516
231	0xbfe3e4261a7267c6	-0.6216002003231942
232	0x3fd94e8fd76d484c	0.39542003667623216
233	0xbfe0ced16feda0d1	-0.5252463518236486
234	0xbfd830cd47d73e81	-0.3779786302156723
235	0x3fdf4404a5d3af05	0.4885264987376419
236	0xbfcb649f7bf8713d	-0.2140082698177909
237	0x3fd664dd0d5b1a1a	0.3499062185696019
238	0xbfb341edacdf9c16	-0.07522473784011682
239	0x3fd33884603c4703	0.30032452962869643
240	0xbfbee3f273712232	-0.12066569631964155
241	0x3fc932663184253f	0.1968505613115585
242	0x3fe056cef296b947	0.5105967271863755
243	0xbfe50360e84f5aee	-0.6566624200157472
244	0x3fd38f7ed6ac2d1c	0.30563326801412116
245	0xbfd169d0d999565d	-0.27208348512553987
246	0xbfd6adcb6ec4a506	-0.3543575841636798
247	0x3fc34c5dc9355f9b	0.15076801609643273
248	0xbfa239142bdd5414	-0.03559172664123636
249	0x3f7795b0fcd4ed3c	0.0057579911784231795
250	0x3fd32f96dec31df1	0.29977962259405816
251	0xbfd631ba542f438c	-0.34678514691500406
252	0xbfbaf50814a2cb9e	-0.10530138496214511
253	0xbfd66461a303cb0f	-0.3498767940465521
254	0x3faf74577cef14d0	0.06143449211189422
255	0xbf9a4f2bc3a7d7c5	-0.025692638222572634

hidden2_hidden3 f8 [32, 64]
0	0xbfecea6d791bcca9	-0.9036166539575748
1	0xbfe3f29cded4f97a	-0.6233658172784964
2	0x3ff1401001d80035	1.0781402656575783
3	0xbfe8dad1faa27cf6	-0.7767114539346085
4	0x3f9324561b49f312	0.018693299689846184
5	0xbfdbb1329d329829	-0.43269028998691056
6	0xbfd95453b9e7d5a8	-0.3957719150051511
7	0x3f987170bd3d0d33	0.023870240736198766
8	0x3fd892dd26f7d1f0	0.38396385961030344
9	0xbfe7883394023858	-0.7353761568827037
10	0x3fc2c2d252530d29	0.14657048244235085
11	0xbfd8f868e52939cf	-0.3901617277050748
12	0xbfefb1019c684687	-0.9903572134810056
13	0xbfe1d57a094883bc	-0.5573091679872202
14	0xbfe3677a2895d558	-0.606381491916788
15	0x3fe93c7ffec87ad8	0.7886352516396427
16	0x3fc517b0e11fe34b	0.16478548996362927
17	0xbfb922410fe53278	-0.09817892683094864
18	0xbfcaa7ff58984f7a	-0.20825187517095484
19	0x3fbf2db5721edf9b	0.12179121051928947
20	0xbfc226012c068f03	-0.1417848076790663
21	0xbfc59ba6a0402f04	-0.1688125879739958
22	0xbfc56d4d74ed17fe	-0.1673981495789007
23	0x3fe5509afd4fb78f	0.6660895297516037
24	0xbfda8e7c49663f51	-0.41494662444983016
25	0xbfea6d1f2ca99253	-0.8258205292045865
26	0x3fe54717d7b07e2b	0.6649283611950002
27	0xbfbd930037bd29ac	-0.11552430496991545
28	0x3ff542011efd15e3	1.328614350365904
29	0xbfa5de1a7ddf30db	-0.04271014009973025
30	0x3ffb7b0675469c9c	1.7175354558073996
31	0xbfc37cf3d178c6c0	-0.15225074508776082
32	0xbfdd01cadc062bfb	-0.4532344006226478
33	0xbfeb150e0283261b	-0.8463201569622386
34	0x3fd8f4767d82b4ef	0.3899208284081643
35	0x3fb04a48057cdad0	0.06363344320275677
36	0xbff5fc6f218c7a34	-1.3741294203279155
37	0xbfdb156287fed25a	-0.4231802299575854
38	0x3ff41610fee9dda4	1.2553873021659934
39	0xbfaba3d1b7639835	-0.053984216343267034
40	0x3fe331fb8235be98	0.5998513739741211
41	0x3fdd78db947eab2e	0.4605015707153822
42	0x3febab758b533320	0.864680072898043
43	0x3fdd77a2e47cff87	0.4604270201998521
44	0xbfd0c483c026bb7b	-0.2619943024137041
45	0x3fd2fb08e0ec1702	0.2965719410425295
46	0x3fdf1b507755103b	0.48604213384192335
47	0x3fcbb3c08d529cfa	0.21642310047648278
48	0xbfcdd2271eb1e9c2	-0.23297585486200317
49	0xbfe41e96c1202cc1	-0.6287339946733469
50	0x3fdfeae0430bb278	0.4987106947653852
51	0xbfe525970368b77a	-0.6608386103232384
52	0xbfd5aef390562ca8	-0.3388031873261732
53	0x3fe8f19a31dab2e7	0.7794924710957191
54	0x3fea30a21221e9c0	0.8184366563939918
55	0x3fce061cbf4decfb	0.23456153241190933
56	0x3fe4029796f362d6	0.6253164242035278
57	0xbff0752dfd8faea8	-1.0286083130585357
58	0xbfd088e84774bd0d	-0.2583561609089465
59	0x3fdea69b2c9dd993	0.4789188323697086
60	0x3fe6d6b767c71f1a	0.7137105013762011
61	0xbfd0373a63c3ac0b	-0.2533708547841235
62	0xbfd893a4e5469440	-0.3840114821453575
63	0x3fc1c2b6ad55e932	0.138754686962622
64	0xbfc19ac0ecd79809	-0.13753520550307055
65	0x3fe4b8c71baf41c0	0.6475558796610628
66	0xbfc422f2e7cf7d21	-0.15731655424949856
67	0xbfe436fadf8779ed	-0.6317114225201387
68	0xbfd34775f828d77d	-0.3012366221840848
69	0xbfe9d39517a255e0	-0.8070779286960565
70	0xbfd45f639bb35541	-0.31832208829048986
71	0x3fdceee435f99f1d	0.45208077689174947
72	0xbfb1572a75df9f48	-0.06773629548808657
73	0xbfe51901582c6165	-0.6593023988853416
74	0x3fd4f4a06af3c604	0.327430824704692
75	0xbfe788542dbb3874	-0.7353917020025293
76	0x3fc78f69c38c9285	0.18406412170692846
77	0xbfd31b6ca61e1ac8	-0.2985488531343603
78	0xbfc25025bc1379f9	-0.14307090457346286
79	0xbfe87eac5ccc8173	-0.7654630482175392
80	0xbfcb8996d5e13f9e	-0.21513638919213646
81	0x3fdfcc04957cae8a	0.49682726476996975
82	0xbfc609d432a4c4f7	-0.1721749541552879
83	0x3ff1ac4c8a14a91b	1.104565181138759
84	0x3fd79524aa0d637a	0.3684779797236427
85	0x3ff4dcec171ee213	1.303936090769757
86	0x3fdffde68f10f7e8	0.49987186404530215
87	0x3fe25a07ed28bc5e	0.5734901077283998
88	0xbfd44ab2b3b806d0	-0.31705920744580585
89	0x3fdff38d95363637	0.49924029895268823
90	0xbff27728e45228e0	-1.1540917319094248
91	0xbfc0100c84056b1a	-0.12548977323862048
92	0xbfdce90e27fae5d8	-0.4517245665006988
93	0x3fea6e0fb80354c2	0.8259352296833173
94	0xbfe60b7c1e85a184	-0.6889019580967646
95	0x3fbea1870de383f1	0.11965221489982959
96	0xbfc2f66b378d3105	-0.14814510548092855
97	0xbfd3921492b0ac0b	-0.3057910377999071
98	0xbfddb2d3622ede63	-0.4640396555728101
99	0x3f805dace53a03ba	0.0079911715940869
100	0x3fc04296c33eb1a0	0.1270321324676731
101	0xbfd477b0aae990a9	-0.31980530443821437
102	0x3fc0111d604bda49	0.12552230073898077
103	0xbfc430442bb1c357	-0.1577229703284739
104	0x3fe5b2aae50af591	0.6780600045673727
105	0x3fb7ab32e0f81351	0.09245603554161376
106	0xbfc086a054bd9284	-0.1291084684154563
107	0xbfe84b704b4481e1	-0.7592088193960614
108	0xbfdc25b7685e2d55	-0.43980202858138756
109	0x3fd55c182405f466	0.33374598997017413
110	0x3fe24e90744da2fa	0.5720903655574994
111	0x3fe25fe10a97cb67	0.5742039877789978
112	0xbfd4c787eca1a1a5	-0.324678402982068
113	0x3fe01d8bb40e4192	0.5036066548073441
114	0xbfcf66d92d927f7a	-0.24532618260581868
115	0x3fd818babd1ddac1	0.37650936573428956
116	0x3fd8f3be6a4e9d49	0.3898769415049697
117	0x3fd85e213964f63c	0.3807452259532942
118	0x3fd08c7da7d3776f	0.25857488049756844
119	0x3fea0afddd2cabd3	0.813841754895629
120	0xbfd46ebef66df8e7	-0.31925939622295946
121	0xbfb4c5162ec52284	-0.08113230363700025
122	0xbfcb482e6a726599	-0.21314029882050248
123	0x3fb152b08cba3e81	0.06766799388628365
124	0xbfe8717dc2ab0c5f	-0.7638539125549747
125	0x3fd7cac5618583d1	0.37175116084659715
126	0x3fb536ec5f66bad2	0.08286931351788532
127	0xbfb9855f81a577cf	-0.09969136157221146
128	0x3fbb01c9f725e03e	0.10549604686627931
129	0xbfe763e091ef9a01	-0.7309420442878151
130	0xbfdbf25e3114aacc	-0.43666796486892845
131	0xbf986108d1359b07	-0.023807657021644803
132	0xbff0af1aed4bb8ba	-1.0427502889029214
133	0x3fefbc62d8166b87	0.9917463512859833
134	0x3feb6fd141c6df0f	0.8573995861724785
135	0x3fe02c6b96c79a46	0.5054223961750004
136	0x3fe03c4386179cd6	0.5073564166058542
137	0x3fd56830654e4c37	0.33448419469022234
138	0xbfe1411919e629bb	-0.5391965394822401
139	0xbfd076273385e495	-0.2572114947466358
140	0x3fc468f3f6a6d6b4	0.15945291083851532
141	0xbfe43162e0933016	-0.6310285936574498
142	0xbfde1bc922f9bc25	-0.47044590392664737
143	0x3fb786718f7eab4a	0.09189519646922154
144	0x3fe724314d3eefed	0.7231680401523569
145	0x3fd7877bacf11647	0.3676442326435318
146	0x3fdab99986d8c708	0.41757810753470936
147	0x3fd007ffef01402b	0.2504882654220661
148	0x3f593ef650551052	0.0015408902557547855
149	0x3f8e0bbb49fbb95c	0.014670813746729898
150	0x3fd782bf86df15b4	0.3673552338699111
151	0xbfd92a1b4b86b806	-0.39319498420343313
152	0xbfbeaf3e6209e91f	-0.11986150640033032
153	0xbfd9f472b1a6cad8	-0.40554492329390035
154	0xbfd75c52dc5363ab	-0.36500998989282135
155	0x3fcca78889d67ba8	0.22386271219599263
156	0xbf6ab2ee4ee50cf6	-0.0032591490227403775
157	0xbfda37c0238c5c4f	-0.40965274306785643
158	0xbfe810446a0e76b3	-0.7519857474723807
159	0xbfe799165472fd29	-0.7374374055288274
160	0x3fe93d895aee12de	0.7887617851234514
161	0x3f9cb66b5a3d1919	0.02803962457917306
162	0x3fca93f2978345af	0.20764000318608342
163	0x3fe470bc6e4b9cc8	0.6387617258268614
164	0x3fc4c913be800bca	0.16238638688818546
165	0x3feeb5a3f9f60e32	0.9596729166082183
166	0x3fc86da9951ebab1	0.1908466318249871
167	0x3fe074fd5bff55fe	0.5142809674095472
168	0x3fb1eb1d24cb693a	0.06999380253129042
169	0x3fe84916d9510b67	0.7589220280136545
170	0xbfe0012b427e6783	-0.5001426981645952
171	0x3fd0b2007705eff8	0.26086436866148643
172	0x3febbe7a9adc97e3	0.8670018219606813
173	0x3fd0c856bbf9fb6d	0.2622277103145539
174	0xbfdcef02bc9eea48	-0.4520880548476822
175	0x3f8fa5c338e6b7d3	0.015452885793674575
176	0x3fd540e89225c9cf	0.33208669922092054
177	0x3fae238a94bded20	0.05886490884491935
178	0x3fbf05940b933b70	0.12117886812778322
179	0xbfdf4472e084f0f9	-0.4885527794429119
180	0xbfd7f99333ad4e29	-0.3746078495653103
181	0x3fcea0a483846146	0.23927742406591274
182	0xbfd5a6c9c60cf169	-0.3383049425208556
183	0x3fc19d4cac6bcba0	0.13761289996145099
184	0x3fc05e1d9bac0c07	0.12787218190359814
185	0x3fb3e88c37d3cfae	0.07776714671109516
186	0x3faab505f0c7379d	0.05216234745203894
187	0xbfb3d75c10845301	-0.07750487712139532
188	0xbfd5e7d86360fb24	-0.3422757120605857
189	0xbfd7caeb96f65858	-0.3717602705231733
190	0xbfde489765d202de	-0.47318062728304067
191	0x3fb8404aaf41f41c	0.09473101404906042
192	0xbfd3f7b15375f2be	-0.31199296141111776
193	0x3fc38338f31f7bde	0.15244209166755146
194	0x3fbc871c2f41371a	0.11143661645584438
195	0x3fd920f5104cd71c	0.39263655273258435
196	0x3fc1f3df416a23a0	0.1402548856169945
197	0xbfceddbdff58d552	-0.24114203422656516
198	0x3fb0d7d73f4ac22d	0.06579346938338722
199	0x3fc87ac3c8402e67	0.1912464835917149
200	0xbfbbb80b3b137580	-0.10827703659329835
201	0x3fd4f8c14a35eaa2	0.32768280264978433
202	0x3f9fb370582fbd5b	0.03095794237372949
203	0x3fbb602a1d4ab432	0.10693610396511202
204	0xbf8df59fdcde06fe	-0.014628647735438257
205	0xbfba71db96856306	-0.10329983162717946
206	0x3f759344e26747e8	0.005267399863855694
207	0xbfbf527d6f133ae5	-0.122352447145413
208	0x3fdada47d416a5bc	0.4195727893043928
209	0xbfbf5d5db3ad6455	-0.12251840244916086
210	0x3fb31fdf3ce72d18	0.07470507847681451
211	0xbf8343edc801aa6d	-0.009406907716955371
212	0xbfa11b9c1c0e9b8b	-0.033413771080908004
213	0xbf55c66b08965683	-0.0013290448426678543
214	0x3fd8854c3dd561ba	0.38313585318021703
215	0x3fcb68af4d551f94	0.21413222576142898
216	0x3fc874388675708c	0.1910467773949488
217	0xbfb90342c65ed564	-0.09770600646046074
218	0x3fd1047c2195619a	0.2658987358058994
219	0xbfa21c7c4afbc040	-0.03537357726406798
220	0x3fc7d7e5a1d4d477	0.1862761535827848
221	0x3fc4f9ef3afff829	0.16387739544728788
222	0x3fc248b764064ed9	0.1428441275025907
223	0x3fda672fe67731f8	0.4125480414047895
224	0x3fc5bf776a1f13bb	0.16990559274395686
225	0x3f90db26706d2aad	0.016460991489376898
226	0x3fb06a68082549e6	0.06412363242024063
227	0x3fd9c8f7f98fe314	0.4028911530618171
228	0x3fcbc5c2c43a149a	0.21697268086805793
229	0x3faf25d9ff928cb6	0.06083565945416451
230	0x3fa1f745a350d50c	0.035089660821919194
231	0x3fc697e2a203218e	0.1765101710391374
232	0xbfc10ee80184340d	-0.1332674033550635
233	0x3fac71b64b21d02a	0.055555054351231384
234	0xbfbd73a8ecc5eeda	-0.1150460794505607
235	0xbfc25d6f366b320d	-0.14347639233746215
236	0xbfbe57b957956159	-0.1185260618998475
237	0x3fc4907c4c444ef6	0.16065934871641446
238	0x3fcf03b3265ab28a	0.24230040905731115
239	0x3fd56a4dd5de9bc0	0.33461328397464385
240	0x3fb322f70d8712a6	0.07475227432503093
241	0x3fd2e321172d7392	0.29511286986763097
242	0x3fc2b7ab0e835c1d	0.14623010834358832
243	0x3fb37b18831a2bfa	0.07609704209077953
244	0x3fb2d679481902a2	0.07358510980794589
245	0x3fc5361a519a4f6d	0.16571358665953131
246	0x3fa2879e0d4c1145	0.036190928576646665
247	0xbfc119d7385fbac0	-0.13360109570154144
248	0xbfc47cd938afd8c3	-0.16006007450022794
249	0x3fc5732e98c7ab2d	0.16757757625540518
250	0x3fe04316c405e9b0	0.5081895664764513
251	0xbfb9d57ca9e4eca9	-0.100913802602849
252	0x3fc11f8a15eff5cd	0.13377500601920503
253	0xbfa9cf218b214e4f	-0.050408409341483044
254	0x3fc8a15620a9d831	0.1924235972871329
255	0x3fe35d06d938a96e	0.6051058046917157

hidden3_output f8 [10, 32]
0	0x3fdeb36f6e5ab021	0.4797018602064345
1	0xbfd0b6b9e053e719	-0.26115271479612684
2	0xbff9e194c973e3ad	-1.6175735348935902
3	0xbfc9343641177a87	-0.19690588167482678
4	0xbff924681081a48d	-1.5713883061201017
5	0x3fe8d5cf289054ac	0.7760997574101984
6	0x3fdc3f937479e068	0.441380370851681
7	0x3ff51394db854078	1.3172806334514728
8	0x3ff1b9124ee028ee	1.1076834755972942
9	0x3fd3b92037a77965	0.30817418513279043
10	0x3f6697f7b0b58b4c	0.0027580106449688665
11	0x40009dc2f6847c55	2.077032018583433
12	0xc0025083a1accebe	-2.2893135672437372
13	0xbff6798c21d069a0	-1.4046746559966792
14	0xbfe1e7bc5d34dfd9	-0.559538061183953
15	0xbfe78d971c0675b1	-0.7360339686744536
16	0xbfdbd168194cb7c6	-0.4346561667506389
17	0x3fd84ee1d47e7089	0.3798145842681682
18	0xbfdf2f02a1746a50	-0.48724427954735905
19	0x3ff7e5add9d18f25	1.4935740002192202
20	0xbfe6400fa653fc6b	-0.6953199623675465
21	0x3ff4ef83c1a73931	1.3084752621248976
22	0x3ffdb84a32221990	1.8574926336601472
23	0xbfca3d733c3d1b24	-0.20500030938475178
24	0x3fdcb5b5b2d754c0	0.4485906836028555
25	0xc0021be82a243fec	-2.2636264126122025
26	0x3fde57d32ba7377c	0.4741104055691421
27	0x3ff55120c5ce2c6f	1.332306645085534
28	0x3ff53b433354de5d	1.3269683842790052
29	0xc00637fb925aae81	-2.7773353036807866
30	0x3fc898b011cdd631	0.19215966100061757
31	0xbfd592a404b6659c	-0.33707523784831905
32	0xbffaefb516d5cc2b	-1.6835223094938196
33	0x3fe7383646864478	0.7256118180686277
34	0x3fe4dc03b36ebb79	0.65185723348064
35	0xbfd379ba129d4192	-0.3043046170978637
36	0x4006a08e7700d11a	2.8283967301487225
37	0x3fe5185dbc17aaf8	0.6592243837052072
38	0x3ff4dae70c92d5a9	1.3034430018572982
39	0x3ff66e84223b5d07	1.4019814812834868
40	0xbffc2950db468927	-1.7600868764353181
41	0xbfe72bedfffd6789	-0.7241125106622671
42	0x3fe47e4acde01a02	0.6404165287975163
43	0xbfe94b257bf520f8	-0.7904231473012535
44	0x3fe9e71e6fc9f8d6	0.8094627555253975
45	0x3fe908393b6ef008	0.7822538529212588
46	0x3ff3656f69f5a687	1.2122644557042876
47	0x3feca6eaa9580153	0.8953755671973717
48	0x3ff499b0bffab0bc	1.2875220774831595
49	0x3fea52e760df95d5	0.8226200954492763
50	0x3fb14553ee1d1ad2	0.06746410907099268
51	0xbfff225aa02c43e0	-1.9458872086290668
52	0x3fe5bf605d5a32fa	0.6796113799369714
53	0xbfe9ccf80a25c7ac	-0.8062706182665713
54	0xc005b70dbbfca458	-2.714381664893647
55	0xbfd403438c916835	-0.31269921042769805
56	0xbffa4d52987f429c	-1.6438775975149502
57	0x3fea232263f139fd	0.8167888595579026
58	0xbfeaa74f98e154ba	-0.8329236970845593
59	0xbff26e46f4d1baa3	-1.1519231379749406
60	0xbffda599cc5e21ae	-1.8529298766244255
61	0x3fe45612adcb989f	0.6355069536628156
62	0x3fd78e5217abb9f6	0.3680615645561426
63	0x3fc31af827ba8d14	0.14926053943518325
64	0xbfe58a14062e500d	-0.6731052513810042
65	0xbfeac7b816889ef9	-0.8368797721968512
66	0xbfdcebbf8caaad6f	-0.4518889306734399
67	0x3fba64a456f3a6c5	0.10309817431302822
68	0xbfe64dee4eb25443	-0.6970130478899893
69	0xbfc6836443dd04b8	-0.17588475526466651
70	0xc003a469e367bd7d	-2.4552800909074777
71	0x3ff32ac913ea167f	1.1979456689745402
72	0x3ff2327173fbb613	1.1373152285190187
73	0xbfea7acb56088fc8	-0.8274895363178922
74	0x3fddbef637450db0	0.46478038213191564
75	0x3f77751d3553a305	0.005726923079443895
76	0x3fe2ddaf6a0ff537	0.5895611831216802
77	0x3fff613ce27fb4c3	1.9612397048579602
78	0x3ff5d0e6d1bf6e9d	1.3635013764641493
79	0x3fe64f81fa2a83bc	0.6972055326515298
80	0xbfecf2ce61318805	-0.9046394251165571
81	0x3fe2515c17851517	0.5724316081401949
82	0x3fe764a2bee5a08c	0.7310346344429646
83	0x4007a5b1930dfa46	2.955905102600158
84	0x3fe59a3480f4c9c8	0.6750738638568743
85	0x3fe0de67c10d18af	0.5271490831880977
86	0xc000225ce6d17be3	-2.016778758304541
87	0x3fd603fd4e069454	0.34399349803635926
88	0x3ffdf7496f64eba6	1.8728727675759074
89	0xbfd549a3912427de	-0.33261956380795066
90	0x3fc058243b1c00f3	0.12768986593437823
91	0xbfed2b1a60875194	-0.9115116010021205
92	0x3fe0f22540cdb43d	0.5295587793058371
93	0xbff46822cce1fbf5	-1.2754238131744817
94	0x3fc0342befb7b74b	0.12659215168917579
95	0xbfd738916eabe959	-0.3628276425148634
96	0x3ff28fb76d315b49	1.1600870385497777
97	0xbfd77dd32aad65e6	-0.36705474059780696
98	0x3feba46eccc7fefb	0.8638223647721753
99	0x3fe5972b4e580486	0.6747032671120372
100	0xbfea51593b904b2c	-0.8224302447655183
101	0x3fde5c9c19271a04	0.4744024510986551
102	0xc0037467fcd6e766	-2.431838965710017
103	0xbffabe470e611db7	-1.671454483193754
104	0xbff480f2868501c6	-1.2814812903089758
105	0x3ff9f65daed34461	1.6226479367362787
106	0x3fe1e632b4516675	0.5593503496013016
107	0xbff287c96b602d7e	-1.1581510729182294
108	0xbfd961b3be81a5da	-0.3965882645048545
109	0x40012bc39adc0289	2.1463691805259413
110	0xbfc261941aa300cd	-0.14360286045667295
111	0xbff87dcd9a273eb0	-1.5307136556256573
112	0x3f86d474503dfb92	0.011147412012858546
113	0xbfcdc40f3df71688	-0.23254576230663226
114	0x3fd24bd8200dda69	0.28587916498455584
115	0xbff6f6440f52fb52	-1.435123500690413
116	0x3fda08f204a3c644	0.40679598286724095
117	0xbfed5cab530fc4f6	-0.9175621626183375
118	0x3fecd5c01d81ac86	0.9010925842570863
119	0xbff9ebabb21239f8	-1.6200367885500082
120	0x4003e2095c14f526	2.485369414701057
121	0x3ff37cd0eeb3e994	1.2179726909949737
122	0x3fd0c42c9c92d183	0.26197352686292436
123	0x3fff50eb68e51c18	1.957255754228532
124	0xbffe8681b385d24c	-1.9078385365111385
125	0xbfe7608e957d649d	-0.7305367393229464
126	0x3fdfed112b9348ab	0.498844425729781
127	0x3fe592c28109d613	0.6741650123864836
128	0x3fd23b51c03b699f	0.28487056515373327
129	0x4002afbc5fb040c4	2.3358085132277626
130	0xbfb540f86b11f9bd	-0.08302261938113183
131	0x3fc7512135613e1d	0.18216338259161172
132	0xbfe279006ffbde81	-0.5772707163987009
133	0xc003ed9a8bfea020	-2.491017430980733
134	0x3fd972c1a7b81a40	0.3976291787988977
135	0xbff653f001d34194	-1.3954925605104096
136	0xbfdcf755027f5a84	-0.4525959514989284
137	0x3fec135ac640d6ad	0.8773626205572406
138	0xbfd6ab55c6d5f98f	-0.35420746247827933
139	0xbff2258669f73413	-1.134161390236163
140	0x3ff4346fb25ca7e8	1.2628018347991148
141	0xbfe5eb6cd73dce75	-0.6849884227689943
142	0x3fd34516bd6727d5	0.3010918473852347
143	0x3ff95a3c72f68f09	1.5845303049799802
144	0xbff2af6e3efbc314	-1.1678297481814228
145	0x3fdc101d80faea9a	0.4384835967609121
146	0xc00054278fd63f11	-2.0410910832650946
147	0x3ff293816279eb25	1.1610120627144138
148	0xbff388bae0dfb5dc	-1.220881346143293
149	0xbf6885a41ab17be9	-0.002993412510064787
150	0x3ffd964a62043206	1.8491920307889145
151	0x3fdb34815a7497ff	0.42507966836490135
152	0x3fe01425a77d16b0	0.502459361196733
153	0x3fd5986ab504478e	0.33742778470433954
154	0xbfab2111e57d6222	-0.05298667837513828
155	0xc007ff59edf7b699	-2.999683245775327
156	0x3fc48fac5f39793c	0.16063456201204385
157	0x3fe24546f21208f4	0.570956681054922
158	0x3fcc636b81be48f0	0.22178405604478924
159	0xbfc538d441bc7d60	-0.1657967873552293
160	0x3fdf6d42df7afb02	0.4910437757898053
161	0xbfc7b05542c659f2	-0.18506875763405578
162	0x3ff34f622c9d6edb	1.206880735661733
163	0xbfdfedb670a5b6de	-0.49888382912364004
164	0x3ff75e6197175785	1.4605422880171954
165	0x3fe5615470daec8e	0.6681310848429278
166	0xbfe7131ea7713853	-0.7210839529377701
167	0xbfd4ad8b62d284b5	-0.32309231424921886
168	0x3feccfd92eeac7cd	0.9003721157407597
169	0x3ffa38bdc39fca6e	1.6388528482026703
170	0xbff86b597b9f2bdb	-1.5262083844161143
171	0x3fe28bc66dad4816	0.579562391483935
172	0x3ff3fc091f5dd1f2	1.249032137418109
173	0xbfeb8f2fb070e6b0	-0.8612287946809456
174	0xc00a7e6fb6be1db4	-3.3117365147370155
175	0xc00b3b084e805961	-3.4038244374198006
176	0xbfe9853251f65a8c	-0.7975093460871263
177	0x3fdd5824089735b3	0.45850468481952616
178	0x3fe87221476e5988	0.7639318843019263
179	0xc002e152c52548b1	-2.360021152687374
180	0x3fd98a22bc5f9489	0.3990561332305523
181	0x3fe785fd03bf5c85	0.7351059983437983
182	0x3fbf161f27edc0c5	0.12143130039999324
183	0xbfe9bfe4765ef8be	-0.8046743690427076
184	0xbff7dc7cf0f9f7d5	-1.4913300908224205
185	0x3fde60bbc367ccad	0.4746541412598145
186	0x3fdafa9309f082c0	0.4215438458505041
187	0x3ff9d6e9a689cfff	1.6149689202693478
188	0x3fd016b96fe35cbe	0.2513869850785787
189	0x3ffd55b7b1479ce1	1.8334271359433887
190	0xbfc94bea7e762d6b	-0.19762927222141555
191	0x3fd138328cbc4283	0.26905502074900073
192	0x3fd37cffc6fc671e	0.3045043414327767
193	0x3fff5c552b8f1936	1.9600421620867343
194	0xc001e2a29b6b4eb2	-2.2356617109415646
195	0xbfd524b2f2065c82	-0.3303649295352856
196	0xbfe0238949d6c4ba	-0.504337925163916
197	0x40002c9df6185669	2.021785662286494
198	0x3ff8e7fa293b3166	1.5566350565523748
199	0x40025d4f54f4230f	2.2955614697460827
200	0x3fdb20a5d5222c44	0.4238676625615805
201	0xbfe346828fe791f2	-0.602357178748717
202	0xbff9b90479494301	-1.6076702821484903
203	0xbff2b9cb941b00ea	-1.1703601632471483
204	0xc002bd09bef5a9f6	-2.3423037451477695
205	0xbfea78f35312134a	-0.8272644636605062
206	0xbffc10c4df333922	-1.7540940016511475
207	0x3fd9395b718140bf	0.39412580570661854
208	0xbff6f28992d6eece	-1.4342132316514156
209	0x3fdd82b4efa08bfa	0.4611027088268994
210	0xbfe22f62f45cc9a8	-0.5682844898895398
211	0xbfddfd71df498a46	-0.46859404378316005
212	0xbfff6d5d80887094	-1.9642004986590438
213	0x3ff3268eef9675ea	1.196913658036801
214	0xc0036078c842877e	-2.4221053738883134
215	0x3fd54a5b5e625d47	0.33266338555536773
216	0xc001127c76759b87	-2.1340264563218088
217	0x3ff80a6a45b4cc89	1.5025427554035409
218	0x3fe126c0d78b3e0f	0.535980626091204
219	0xbfe9f4be087fa30e	-0.8111257711399007
220	0x3fd25d65648794e6	0.28695044343323983
221	0x3fec9d903d5ab989	0.8942338178947448
222	0x3fcc6ddff87271e0	0.222103115379368
223	0x3fd4b9d141f66181	0.323841394821578
224	0xc00ec8ddaa1ddc42	-3.8480790415156045
225	0xbfea55045b4c9434	-0.8228780539690264
226	0x3fe7a75d7e34f3d2	0.7391803231217813
227	0x3fdccaa6cd424e3d	0.4498688702089771
228	0x400dca2407b62ab1	3.723701534506596
229	0xc00221fd60aa0f29	-2.2665965606592136
230	0xbfdc7c9cb7e9fcd0	-0.44510572395661274
231	0xbff0dbb74069f9f1	-1.05364155923564
232	0xbfee6794ac37ee72	-0.9501441348688344
233	0xbff1316e8575bb99	-1.0745682919766522
234	0xbff1b73605be1c22	-1.1072292541810005
235	0x3fe0d2654526c62e	0.5256830549826128
236	0x3ff281955d174a19	1.1566365848890483
237	0x40006a16dce7fe3a	2.0518014200495402
238	0xbfd1bf45cfc7b883	-0.2772993592360608
239	0x3fdf652041888dca	0.49054724120852866
240	0x3ffa0a531070c9fa	1.627520622464202
241	0xbff48384866a7c38	-1.2821088076232297
242	0x3fceba26c15264b9	0.2400558895067542
243	0x40082faa1dc23e52	3.0232736897376435
244	0x3fce4640bbccb51a	0.23651894731430262
245	0xbfe5ae5a3802970a	-0.6775332540462113
246	0x3fe74960d4cb154d	0.7277073055380839
247	0x3feb26169ed86db0	0.8483994581651384
248	0x3ff027a6914f2d44	1.009680335630791
249	0xbff4dba30ea0cfcd	-1.303622300282757
250	0xbff2d827e5804f4b	-1.1777724232569706
251	0x3fe3685f7dd2047b	0.6064908463887514
252	0x3fc0dc146b326b0c	0.13171630129075884
253	0x3ff356b06119048a	1.2086643021469023
254	0x3fdcc659993b552e	0.4496063228992452
255	0xbfef21bce87d1ec3	-0.9728683987422858

hidden_bias f8 [128, 1]
0	0x3fd52436caf57e7a	0.3303353292485337
1	0x3f9021b954322d6f	0.01575364662543904
2	0x3fcfbaa6dd10596b	0.2478836612141991
3	0x3fba855baadc94e7	0.10359738274981432
4	0x3fd14b438a5c244d	0.270218739621275
5	0x3fbb65b8a9f8fdbe	0.10702089452478611
6	0x3fc6b47bcb5c87ee	0.17738292150266893
7	0xbfb0eb6aecf07891	-0.06609218868877266
8	0x3fc1bc2ef774b4b5	0.13855540354544407
9	0x3fc5c522d1ed77a2	0.1700786137616293
10	0x3fd6aee483dde665	0.35442459943405985
11	0xbfa8cb6affc3aaaf	-0.04842695591090284
12	0x3f7555f1b0c65be5	0.005208915809268942
13	0xbfc8e53c6ecf1041	-0.19449572954738595
14	0xbfbc16b7d46e1112	-0.10972165046957041
15	0x3fc52281a5790f09	0.165115552708919
16	0x3fd754fa508e978d	0.364561632794328
17	0x3fc745988ff2c77e	0.18181139973381372
18	0xbfb2f8b9f6c8163d	-0.07410776400509973
19	0xbfdcc746c11b48af	-0.44966286523880233
20	0x3fb91deb2f9f3492	0.0981127730621714
21	0x3fd46485611b8172	0.3186353157343752
22	0xbfb14b30592878ee	-0.06755354096137342
23	0x3fbc3b52a5f6eba7	0.11028019477718819
24	0x3fc7ac33fb33edc6	0.18494272008670815
25	0xbfabfd9c0c603332	-0.05466926241942928
26	0x3fdeb0c7a576366f	0.47953978689552107
27	0xbfc20c7dfad0de49	-0.1410062288939449
28	0x3fdfdddb98a16b90	0.4979161253483477
29	0x3f9d2420000efc9b	0.028458118442128293
30	0x3fb7f9a82ad47148	0.09365321202898713
31	0x3fcf52928958c065	0.2447074099195589
32	0xbfd057ffbbbfd9d3	-0.25537103018669177
33	0x3fcd11c4c3bc70fc	0.2271047549956008
34	0x3fd048f321714784	0.25445249811047455
35	0xbfc4eb28899156eb	-0.16342646329092445
36	0x3f8cf027688be7c2	0.014129932287222039
37	0x3fcbff304b524469	0.2187252395420132
38	0x3fd085f9b6b4f67e	0.2581772121664939
39	0xbfc70f7e418e1f6c	-0.18016031456886183
40	0xbfddd7dbee5acb94	-0.4662999942476571
41	0x3fc19088d0700f5e	0.13722334077476267
42	0x3fe3bdf73016c1ab	0.6169391574131188
43	0x3fc32b66bacb2798	0.1497620021894448
44	0x3fb36d02dacd0983	0.07588212816066257
45	0x3fc3b7c2089ff9ba	0.15404534741533188
46	0xbfab41761d6dcd32	-0.05323380574454929
47	0x3fc3bdba5ecbb260	0.15422753933616473
48	0x3fc1ccfe2f225935	0.1390683870456059
49	0x3fd3a091ddf8b2d6	0.3066754024210189
50	0x3fc00127b2fa6a7a	0.12503525008363053
51	0x3fa8470cefdadad7	0.04741707256237298
52	0x3fe5f24d3cb189be	0.68582784513665
53	0x3fdda65ae26788fa	0.4632785044651794
54	0xbfe2cffba7fa3631	-0.5878885536964785
55	0xbfd51ea5395974e5	-0.3299954471638798
56	0x3fa0dab982302afa	0.032918736593350276
57	0x3fde045ae8f974b0	0.4690158152714714
58	0x3fb1f1c8e1c011f2	0.07009559165459914
59	0x3fd7846c9f2c0f8c	0.36745753807212433
60	0x3fdb2fefc2d1fd59	0.4248008158246726
61	0x3fd1ba46e0c627b2	0.27699443770017773
62	0x3fc3b331d196ed7a	0.15390608533730782
63	0xbfc47f2ee1990b30	-0.16013132110136885
64	0xbfdc35a50c1eeec5	-0.44077421363520514
65	0x3fc81714539067c6	0.1882043273952247
66	0x3fe27184bb75c3fc	0.576357236988883
67	0xbf9a8cd9354aae8f	-0.025927919271153285
68	0xbfb43aea7dfe56c2	-0.07902398658765278
69	0xbfdb876e6a8f14f6	-0.4301410713781729
70	0x3fd2e10f4dd8324f	0.2949865589332931
71	0x3f88e94d946efcfc	0.012163740246136083
72	0x3fc004c0553c01b8	0.12514499818645475
73	0x3fdd8aeb1594f0a9	0.4616039000282038
74	0x3fd85312810f513a	0.38007032969950993
75	0x3fd5ecbb3df9f5ea	0.3425739388693204
76	0x3fdd8b9ea350bed3	0.4616467089535778
77	0x3f6db7e3b0babae9	0.0036277243687757765
78	0x3fd3046cb3b93875	0.2971450572121122
79	0x3fdfe26ea9c79809	0.4981953294758346
80	0x3fbd876f58f34b04	0.11534782334937793
81	0xbf920d1e3853a7a3	-0.017628166377938858
82	0x3fc8025332c1cd8f	0.18757095316287262
83	0xbfadfed96c1d9875	-0.05858497090120888
84	0x3fcdd949f9be93e2	0.2331936330275815
85	0x3fd714c957ee4ec0	0.36064370715142147
86	0x3fd6c29f0871424f	0.35562873672919165
87	0x3fd4063716369108	0.3128793446469591
88	0x3fd8f48eae2d0139	0.3899265957770868
89	0xbf9f55dc7909497d	-0.030600972068279376
90	0x3fcc70c0416e7b04	0.22219088740254034
91	0x3fc2e397e1082c6e	0.14757059562575442
92	0x3fd3f2108771205a	0.31164944864986455
93	0x3fe05a3a87f2e62d	0.5110142379045947
94	0x3fcd7603cadb30c8	0.23016402630890398
95	0xbfba1877e0f62a1a	-0.10193585626817772
96	0x3fe0f71fb50492f0	0.5301664863114564
97	0x3fe28abd98ed5d18	0.5794361101970109
98	0x3fb1d6340f00b232	0.06967473379399605
99	0xbfd9de623b1907ac	-0.40419822474734235
100	0x3fc91c941100f0b0	0.1961846430803056
101	0x3fdf1b9852541d56	0.48605926551723166
102	0x3fd49f403bcdb0f6	0.3222199043291448
103	0xbfc0d9c71057518e	-0.13164604471115776
104	0xbff027e7d4d58404	-1.0097425760106953
105	0x3fd95197503c6960	0.3956049235872765
106	0x3fc62ef6642826ca	0.1733081807181434
107	0x3fc9558d0de32b76	0.1979233091172678
108	0x3fde60661241cbeb	0.4746337106982412
109	0x3fe6fe63406d54f9	0.7185531862584461
110	0x3fcf757b295d94ce	0.24577273864557586
111	0x3fcdecfb8713427d	0.23379463286848426
112	0x3fcad6a412ae49f3	0.2096753207411691
113	0x3f824aaf694e0cac	0.008931513215207985
114	0xbfa666fe5f649abc	-0.04375452913727915
115	0x3fba79b8e1bc3175	0.1034198332892567
116	0xbf827305f7416875	-0.009008452041758578
117	0x3fc753fce0940ebe	0.18225060430278534
118	0x3fa96d357cfb11f9	0.049661323076666215
119	0x3fd757da2e64141b	0.36473707704891617
120	0x3fe196e76e628f61	0.5496709018666303
121	0xbfc5a122e4baf826	-0.16897998970483846
122	0xbfd04d0686a57d89	-0.2547012629420001
123	0x3fd8b58ce13afd23	0.38608095164450357
124	0x3fc1beaef267a7d1	0.13863169513871168
125	0x3fc4e309f4640222	0.16317867692124916
126	0x3fc18f359cd88cc2	0.13718290480128387
127	0x3fd373407e3d0ddf	0.30390941932657073
